…
S001,252,64,0.9285714285714285,0.00972019739199675,0.9230009496676163,0.002419845516981256,0.8571428571428572,0.029160592175990246,0.8886347754272282,0.016807065122645,0.9593962585034014,0.023108296329423773,0.9642857142857143,0.0,"['Fc5', 'Fc3', 'Fc1', 'Fcz', 'Fc2', 'Fc4', 'Fc6', 'C5', 'C3', 'C1', 'Cz', 'C2', 'C4', 'C6', 'Cp5', 'Cp3', 'Cp1', 'Cpz', 'Cp2', 'Cp4', 'Cp6', 'Fp1', 'Fpz', 'Fp2', 'Af7', 'Af3', 'Afz', 'Af4', 'Af8', 'F7', 'F5', 'F3', 'F1', 'Fz', 'F2', 'F4', 'F6', 'F8', 'Ft7', 'Ft8', 'T7', 'T8', 'T9', 'T10', 'Tp7', 'Tp8', 'P7', 'P5', 'P3', 'P1', 'Pz', 'P2', 'P4', 'P6', 'P8', 'Po7', 'Po3', 'Poz', 'Po4', 'Po8', 'O1', 'Oz', 'O2', 'Iz']","[CNNSAE(
  (spatial_attention): SpatialAttention(
    (attention): Sequential(
      (0): Linear(in_features=64, out_features=16, bias=True)
      (1): ReLU()
      (2): Linear(in_features=16, out_features=64, bias=True)
      (3): Sigmoid()
    )
  )
  (conv1): Conv1d(64, 64, kernel_size=(5,), stride=(1,), padding=(2,))
  (bn1): BatchNorm1d(64, eps=1e-05, momentum=0.1, affine=True, track_running_stats=True)
  (pool1): MaxPool1d(kernel_size=2, stride=2, padding=0, dilation=1, ceil_mode=False)
  (conv2): Conv1d(64, 128, kernel_size=(5,), stride=(1,), padding=(2,))
  (bn2): BatchNorm1d(128, eps=1e-05, momentum=0.1, affine=True, track_running_stats=True)
  (pool2): MaxPool1d(kernel_size=2, stride=2, padding=0, dilation=1, ceil_mode=False)
  (conv3): Conv1d(128, 256, kernel_size=(3,), stride=(1,), padding=(1,))
  (bn3): BatchNorm1d(256, eps=1e-05, momentum=0.1, affine=True, track_running_stats=True)
  (pool3): MaxPool1d(kernel_size=2, stride=2, padding=0, dilation=1, ceil_mode=False)
  (dropout): Dropout(p=0.5, inplace=False)
  (fc1): Linear(in_features=24576, out_features=256, bias=True)
  (fc2): Linear(in_features=256, out_features=2, bias=True)
), CNNSAE(
  (spatial_attention): SpatialAttention(
    (attention): Sequential(
      (0): Linear(in_features=64, out_features=16, bias=True)
      (1): ReLU()
      (2): Linear(in_features=16, out_features=64, bias=True)
      (3): Sigmoid()
    )
  )
  (conv1): Conv1d(64, 64, kernel_size=(5,), stride=(1,), padding=(2,))
  (bn1): BatchNorm1d(64, eps=1e-05, momentum=0.1, affine=True, track_running_stats=True)
  (pool1): MaxPool1d(kernel_size=2, stride=2, padding=0, dilation=1, ceil_mode=False)
  (conv2): Conv1d(64, 128, kernel_size=(5,), stride=(1,), padding=(2,))
  (bn2): BatchNorm1d(128, eps=1e-05, momentum=0.1, affine=True, track_running_stats=True)
  (pool2): MaxPool1d(kernel_size=2, stride=2, padding=0, dilation=1, ceil_mode=False)
  (conv3): Conv1d(128, 256, kernel_size=(3,), stride=(1,), padding=(1,))
  (bn3): BatchNorm1d(256, eps=1e-05, momentum=0.1, affine=True, track_running_stats=True)
  (pool3): MaxPool1d(kernel_size=2, stride=2, padding=0, dilation=1, ceil_mode=False)
  (dropout): Dropout(p=0.5, inplace=False)
  (fc1): Linear(in_features=24576, out_features=256, bias=True)
  (fc2): Linear(in_features=256, out_features=2, bias=True)
), CNNSAE(
  (spatial_attention): SpatialAttention(
    (attention): Sequential(
      (0): Linear(in_features=64, out_features=16, bias=True)
      (1): ReLU()
      (2): Linear(in_features=16, out_features=64, bias=True)
      (3): Sigmoid()
    )
  )
  (conv1): Conv1d(64, 64, kernel_size=(5,), stride=(1,), padding=(2,))
  (bn1): BatchNorm1d(64, eps=1e-05, momentum=0.1, affine=True, track_running_stats=True)
  (pool1): MaxPool1d(kernel_size=2, stride=2, padding=0, dilation=1, ceil_mode=False)
  (conv2): Conv1d(64, 128, kernel_size=(5,), stride=(1,), padding=(2,))
  (bn2): BatchNorm1d(128, eps=1e-05, momentum=0.1, affine=True, track_running_stats=True)
  (pool2): MaxPool1d(kernel_size=2, stride=2, padding=0, dilation=1, ceil_mode=False)
  (conv3): Conv1d(128, 256, kernel_size=(3,), stride=(1,), padding=(1,))
  (bn3): BatchNorm1d(256, eps=1e-05, momentum=0.1, affine=True, track_running_stats=True)
  (pool3): MaxPool1d(kernel_size=2, stride=2, padding=0, dilation=1, ceil_mode=False)
  (dropout): Dropout(p=0.5, inplace=False)
  (fc1): Linear(in_features=24576, out_features=256, bias=True)
  (fc2): Linear(in_features=256, out_features=2, bias=True)
)]"
S002,252,64,0.7103174603174603,0.029695693545824926,0.7829059829059829,0.160883672695418,0.23809523809523805,0.14964053678543493,0.3236124422190492,0.1867570818645451,0.6564625850340137,0.08630585847248812,0.9464285714285715,0.03857583749052298,"['Fc5', 'Fc3', 'Fc1', 'Fcz', 'Fc2', 'Fc4', 'Fc6', 'C5', 'C3', 'C1', 'Cz', 'C2', 'C4', 'C6', 'Cp5', 'Cp3', 'Cp1', 'Cpz', 'Cp2', 'Cp4', 'Cp6', 'Fp1', 'Fpz', 'Fp2', 'Af7', 'Af3', 'Afz', 'Af4', 'Af8', 'F7', 'F5', 'F3', 'F1', 'Fz', 'F2', 'F4', 'F6', 'F8', 'Ft7', 'Ft8', 'T7', 'T8', 'T9', 'T10', 'Tp7', 'Tp8', 'P7', 'P5', 'P3', 'P1', 'Pz', 'P2', 'P4', 'P6', 'P8', 'Po7', 'Po3', 'Poz', 'Po4', 'Po8', 'O1', 'Oz', 'O2', 'Iz']","[CNNSAE(
  (spatial_attention): SpatialAttention(
    (attention): Sequential(
      (0): Linear(in_features=64, out_features=16, bias=True)
      (1): ReLU()
      (2): Linear(in_features=16, out_features=64, bias=True)
      (3): Sigmoid()
    )
  )
  (conv1): Conv1d(64, 64, kernel_size=(5,), stride=(1,), padding=(2,))
  (bn1): BatchNorm1d(64, eps=1e-05, momentum=0.1, affine=True, track_running_stats=True)
  (pool1): MaxPool1d(kernel_size=2, stride=2, padding=0, dilation=1, ceil_mode=False)
  (conv2): Conv1d(64, 128, kernel_size=(5,), stride=(1,), padding=(2,))
  (bn2): BatchNorm1d(128, eps=1e-05, momentum=0.1, affine=True, track_running_stats=True)
  (pool2): MaxPool1d(kernel_size=2, stride=2, padding=0, dilation=1, ceil_mode=False)
  (conv3): Conv1d(128, 256, kernel_size=(3,), stride=(1,), padding=(1,))
  (bn3): BatchNorm1d(256, eps=1e-05, momentum=0.1, affine=True, track_running_stats=True)
  (pool3): MaxPool1d(kernel_size=2, stride=2, padding=0, dilation=1, ceil_mode=False)
  (dropout): Dropout(p=0.5, inplace=False)
  (fc1): Linear(in_features=24576, out_features=256, bias=True)
  (fc2): Linear(in_features=256, out_features=2, bias=True)
), CNNSAE(
  (spatial_attention): SpatialAttention(
    (attention): Sequential(
      (0): Linear(in_features=64, out_features=16, bias=True)
      (1): ReLU()
      (2): Linear(in_features=16, out_features=64, bias=True)
      (3): Sigmoid()
    )
  )
  (conv1): Conv1d(64, 64, kernel_size=(5,), stride=(1,), padding=(2,))
  (bn1): BatchNorm1d(64, eps=1e-05, momentum=0.1, affine=True, track_running_stats=True)
  (pool1): MaxPool1d(kernel_size=2, stride=2, padding=0, dilation=1, ceil_mode=False)
  (conv2): Conv1d(64, 128, kernel_size=(5,), stride=(1,), padding=(2,))
  (bn2): BatchNorm1d(128, eps=1e-05, momentum=0.1, affine=True, track_running_stats=True)
  (pool2): MaxPool1d(kernel_size=2, stride=2, padding=0, dilation=1, ceil_mode=False)
  (conv3): Conv1d(128, 256, kernel_size=(3,), stride=(1,), padding=(1,))
  (bn3): BatchNorm1d(256, eps=1e-05, momentum=0.1, affine=True, track_running_stats=True)
  (pool3): MaxPool1d(kernel_size=2, stride=2, padding=0, dilation=1, ceil_mode=False)
  (dropout): Dropout(p=0.5, inplace=False)
  (fc1): Linear(in_features=24576, out_features=256, bias=True)
  (fc2): Linear(in_features=256, out_features=2, bias=True)
), CNNSAE(
  (spatial_attention): SpatialAttention(
    (attention): Sequential(
      (0): Linear(in_features=64, out_features=16, bias=True)
      (1): ReLU()
      (2): Linear(in_features=16, out_features=64, bias=True)
      (3): Sigmoid()
    )
  )
  (conv1): Conv1d(64, 64, kernel_size=(5,), stride=(1,), padding=(2,))
  (bn1): BatchNorm1d(64, eps=1e-05, momentum=0.1, affine=True, track_running_stats=True)
  (pool1): MaxPool1d(kernel_size=2, stride=2, padding=0, dilation=1, ceil_mode=False)
  (conv2): Conv1d(64, 128, kernel_size=(5,), stride=(1,), padding=(2,))
  (bn2): BatchNorm1d(128, eps=1e-05, momentum=0.1, affine=True, track_running_stats=True)
  (pool2): MaxPool1d(kernel_size=2, stride=2, padding=0, dilation=1, ceil_mode=False)
  (conv3): Conv1d(128, 256, kernel_size=(3,), stride=(1,), padding=(1,))
  (bn3): BatchNorm1d(256, eps=1e-05, momentum=0.1, affine=True, track_running_stats=True)
  (pool3): MaxPool1d(kernel_size=2, stride=2, padding=0, dilation=1, ceil_mode=False)
  (dropout): Dropout(p=0.5, inplace=False)
  (fc1): Linear(in_features=24576, out_features=256, bias=True)
  (fc2): Linear(in_features=256, out_features=2, bias=True)
)]"
S005,252,64,0.8333333333333334,0.0423693581429814,0.7833333333333333,0.06944222218666554,0.6904761904761906,0.06734350297014735,0.733913884857281,0.06828510652622195,0.8556547619047619,0.01286446876735316,0.9047619047619048,0.03035130662852846,"['Fc5', 'Fc3', 'Fc1', 'Fcz', 'Fc2', 'Fc4', 'Fc6', 'C5', 'C3', 'C1', 'Cz', 'C2', 'C4', 'C6', 'Cp5', 'Cp3', 'Cp1', 'Cpz', 'Cp2', 'Cp4', 'Cp6', 'Fp1', 'Fpz', 'Fp2', 'Af7', 'Af3', 'Afz', 'Af4', 'Af8', 'F7', 'F5', 'F3', 'F1', 'Fz', 'F2', 'F4', 'F6', 'F8', 'Ft7', 'Ft8', 'T7', 'T8', 'T9', 'T10', 'Tp7', 'Tp8', 'P7', 'P5', 'P3', 'P1', 'Pz', 'P2', 'P4', 'P6', 'P8', 'Po7', 'Po3', 'Poz', 'Po4', 'Po8', 'O1', 'Oz', 'O2', 'Iz']","[CNNSAE(
  (spatial_attention): SpatialAttention(
    (attention): Sequential(
      (0): Linear(in_features=64, out_features=16, bias=True)
      (1): ReLU()
      (2): Linear(in_features=16, out_features=64, bias=True)
      (3): Sigmoid()
    )
  )
  (conv1): Conv1d(64, 64, kernel_size=(5,), stride=(1,), padding=(2,))
  (bn1): BatchNorm1d(64, eps=1e-05, momentum=0.1, affine=True, track_running_stats=True)
  (pool1): MaxPool1d(kernel_size=2, stride=2, padding=0, dilation=1, ceil_mode=False)
  (conv2): Conv1d(64, 128, kernel_size=(5,), stride=(1,), padding=(2,))
  (bn2): BatchNorm1d(128, eps=1e-05, momentum=0.1, affine=True, track_running_stats=True)
  (pool2): MaxPool1d(kernel_size=2, stride=2, padding=0, dilation=1, ceil_mode=False)
  (conv3): Conv1d(128, 256, kernel_size=(3,), stride=(1,), padding=(1,))
  (bn3): BatchNorm1d(256, eps=1e-05, momentum=0.1, affine=True, track_running_stats=True)
  (pool3): MaxPool1d(kernel_size=2, stride=2, padding=0, dilation=1, ceil_mode=False)
  (dropout): Dropout(p=0.5, inplace=False)
  (fc1): Linear(in_features=24576, out_features=256, bias=True)
  (fc2): Linear(in_features=256, out_features=2, bias=True)
), CNNSAE(
  (spatial_attention): SpatialAttention(
    (attention): Sequential(
      (0): Linear(in_features=64, out_features=16, bias=True)
      (1): ReLU()
      (2): Linear(in_features=16, out_features=64, bias=True)
      (3): Sigmoid()
    )
  )
  (conv1): Conv1d(64, 64, kernel_size=(5,), stride=(1,), padding=(2,))
  (bn1): BatchNorm1d(64, eps=1e-05, momentum=0.1, affine=True, track_running_stats=True)
  (pool1): MaxPool1d(kernel_size=2, stride=2, padding=0, dilation=1, ceil_mode=False)
  (conv2): Conv1d(64, 128, kernel_size=(5,), stride=(1,), padding=(2,))
  (bn2): BatchNorm1d(128, eps=1e-05, momentum=0.1, affine=True, track_running_stats=True)
  (pool2): MaxPool1d(kernel_size=2, stride=2, padding=0, dilation=1, ceil_mode=False)
  (conv3): Conv1d(128, 256, kernel_size=(3,), stride=(1,), padding=(1,))
  (bn3): BatchNorm1d(256, eps=1e-05, momentum=0.1, affine=True, track_running_stats=True)
  (pool3): MaxPool1d(kernel_size=2, stride=2, padding=0, dilation=1, ceil_mode=False)
  (dropout): Dropout(p=0.5, inplace=False)
  (fc1): Linear(in_features=24576, out_features=256, bias=True)
  (fc2): Linear(in_features=256, out_features=2, bias=True)
), CNNSAE(
  (spatial_attention): SpatialAttention(
    (attention): Sequential(
      (0): Linear(in_features=64, out_features=16, bias=True)
      (1): ReLU()
      (2): Linear(in_features=16, out_features=64, bias=True)
      (3): Sigmoid()
    )
  )
  (conv1): Conv1d(64, 64, kernel_size=(5,), stride=(1,), padding=(2,))
  (bn1): BatchNorm1d(64, eps=1e-05, momentum=0.1, affine=True, track_running_stats=True)
  (pool1): MaxPool1d(kernel_size=2, stride=2, padding=0, dilation=1, ceil_mode=False)
  (conv2): Conv1d(64, 128, kernel_size=(5,), stride=(1,), padding=(2,))
  (bn2): BatchNorm1d(128, eps=1e-05, momentum=0.1, affine=True, track_running_stats=True)
  (pool2): MaxPool1d(kernel_size=2, stride=2, padding=0, dilation=1, ceil_mode=False)
  (conv3): Conv1d(128, 256, kernel_size=(3,), stride=(1,), padding=(1,))
  (bn3): BatchNorm1d(256, eps=1e-05, momentum=0.1, affine=True, track_running_stats=True)
  (pool3): MaxPool1d(kernel_size=2, stride=2, padding=0, dilation=1, ceil_mode=False)
  (dropout): Dropout(p=0.5, inplace=False)
  (fc1): Linear(in_features=24576, out_features=256, bias=True)
  (fc2): Linear(in_features=256, out_features=2, bias=True)
)]"
S006,252,64,0.8015873015873015,0.04046840883803797,0.7511752136752138,0.08334990521175933,0.6309523809523809,0.12140522651411392,0.6746197608266574,0.07751828177055811,0.8255739795918368,0.05822288443264938,0.8869047619047619,0.060702613257056934,"['Fc5', 'Fc3', 'Fc1', 'Fcz', 'Fc2', 'Fc4', 'Fc6', 'C5', 'C3', 'C1', 'Cz', 'C2', 'C4', 'C6', 'Cp5', 'Cp3', 'Cp1', 'Cpz', 'Cp2', 'Cp4', 'Cp6', 'Fp1', 'Fpz', 'Fp2', 'Af7', 'Af3', 'Afz', 'Af4', 'Af8', 'F7', 'F5', 'F3', 'F1', 'Fz', 'F2', 'F4', 'F6', 'F8', 'Ft7', 'Ft8', 'T7', 'T8', 'T9', 'T10', 'Tp7', 'Tp8', 'P7', 'P5', 'P3', 'P1', 'Pz', 'P2', 'P4', 'P6', 'P8', 'Po7', 'Po3', 'Poz', 'Po4', 'Po8', 'O1', 'Oz', 'O2', 'Iz']","[CNNSAE(
  (spatial_attention): SpatialAttention(
    (attention): Sequential(
      (0): Linear(in_features=64, out_features=16, bias=True)
      (1): ReLU()
      (2): Linear(in_features=16, out_features=64, bias=True)
      (3): Sigmoid()
    )
  )
  (conv1): Conv1d(64, 64, kernel_size=(5,), stride=(1,), padding=(2,))
  (bn1): BatchNorm1d(64, eps=1e-05, momentum=0.1, affine=True, track_running_stats=True)
  (pool1): MaxPool1d(kernel_size=2, stride=2, padding=0, dilation=1, ceil_mode=False)
  (conv2): Conv1d(64, 128, kernel_size=(5,), stride=(1,), padding=(2,))
  (bn2): BatchNorm1d(128, eps=1e-05, momentum=0.1, affine=True, track_running_stats=True)
  (pool2): MaxPool1d(kernel_size=2, stride=2, padding=0, dilation=1, ceil_mode=False)
  (conv3): Conv1d(128, 256, kernel_size=(3,), stride=(1,), padding=(1,))
  (bn3): BatchNorm1d(256, eps=1e-05, momentum=0.1, affine=True, track_running_stats=True)
  (pool3): MaxPool1d(kernel_size=2, stride=2, padding=0, dilation=1, ceil_mode=False)
  (dropout): Dropout(p=0.5, inplace=False)
  (fc1): Linear(in_features=24576, out_features=256, bias=True)
  (fc2): Linear(in_features=256, out_features=2, bias=True)
), CNNSAE(
  (spatial_attention): SpatialAttention(
    (attention): Sequential(
      (0): Linear(in_features=64, out_features=16, bias=True)
      (1): ReLU()
      (2): Linear(in_features=16, out_features=64, bias=True)
      (3): Sigmoid()
    )
  )
  (conv1): Conv1d(64, 64, kernel_size=(5,), stride=(1,), padding=(2,))
  (bn1): BatchNorm1d(64, eps=1e-05, momentum=0.1, affine=True, track_running_stats=True)
  (pool1): MaxPool1d(kernel_size=2, stride=2, padding=0, dilation=1, ceil_mode=False)
  (conv2): Conv1d(64, 128, kernel_size=(5,), stride=(1,), padding=(2,))
  (bn2): BatchNorm1d(128, eps=1e-05, momentum=0.1, affine=True, track_running_stats=True)
  (pool2): MaxPool1d(kernel_size=2, stride=2, padding=0, dilation=1, ceil_mode=False)
  (conv3): Conv1d(128, 256, kernel_size=(3,), stride=(1,), padding=(1,))
  (bn3): BatchNorm1d(256, eps=1e-05, momentum=0.1, affine=True, track_running_stats=True)
  (pool3): MaxPool1d(kernel_size=2, stride=2, padding=0, dilation=1, ceil_mode=False)
  (dropout): Dropout(p=0.5, inplace=False)
  (fc1): Linear(in_features=24576, out_features=256, bias=True)
  (fc2): Linear(in_features=256, out_features=2, bias=True)
), CNNSAE(
  (spatial_attention): SpatialAttention(
    (attention): Sequential(
      (0): Linear(in_features=64, out_features=16, bias=True)
      (1): ReLU()
      (2): Linear(in_features=16, out_features=64, bias=True)
      (3): Sigmoid()
    )
  )
  (conv1): Conv1d(64, 64, kernel_size=(5,), stride=(1,), padding=(2,))
  (bn1): BatchNorm1d(64, eps=1e-05, momentum=0.1, affine=True, track_running_stats=True)
  (pool1): MaxPool1d(kernel_size=2, stride=2, padding=0, dilation=1, ceil_mode=False)
  (conv2): Conv1d(64, 128, kernel_size=(5,), stride=(1,), padding=(2,))
  (bn2): BatchNorm1d(128, eps=1e-05, momentum=0.1, affine=True, track_running_stats=True)
  (pool2): MaxPool1d(kernel_size=2, stride=2, padding=0, dilation=1, ceil_mode=False)
  (conv3): Conv1d(128, 256, kernel_size=(3,), stride=(1,), padding=(1,))
  (bn3): BatchNorm1d(256, eps=1e-05, momentum=0.1, affine=True, track_running_stats=True)
  (pool3): MaxPool1d(kernel_size=2, stride=2, padding=0, dilation=1, ceil_mode=False)
  (dropout): Dropout(p=0.5, inplace=False)
  (fc1): Linear(in_features=24576, out_features=256, bias=True)
  (fc2): Linear(in_features=256, out_features=2, bias=True)
)]"
S007,252,64,0.9007936507936508,0.0368000733948242,0.8969979296066253,0.07543807195365246,0.7976190476190476,0.060702613257056934,0.8429397399985635,0.058656366696538675,0.9506802721088435,0.021192499575819073,0.9523809523809524,0.036692940493862965,"['Fc5', 'Fc3', 'Fc1', 'Fcz', 'Fc2', 'Fc4', 'Fc6', 'C5', 'C3', 'C1', 'Cz', 'C2', 'C4', 'C6', 'Cp5', 'Cp3', 'Cp1', 'Cpz', 'Cp2', 'Cp4', 'Cp6', 'Fp1', 'Fpz', 'Fp2', 'Af7', 'Af3', 'Afz', 'Af4', 'Af8', 'F7', 'F5', 'F3', 'F1', 'Fz', 'F2', 'F4', 'F6', 'F8', 'Ft7', 'Ft8', 'T7', 'T8', 'T9', 'T10', 'Tp7', 'Tp8', 'P7', 'P5', 'P3', 'P1', 'Pz', 'P2', 'P4', 'P6', 'P8', 'Po7', 'Po3', 'Poz', 'Po4', 'Po8', 'O1', 'Oz', 'O2', 'Iz']","[CNNSAE(
  (spatial_attention): SpatialAttention(
    (attention): Sequential(
      (0): Linear(in_features=64, out_features=16, bias=True)
      (1): ReLU()
      (2): Linear(in_features=16, out_features=64, bias=True)
      (3): Sigmoid()
    )
  )
  (conv1): Conv1d(64, 64, kernel_size=(5,), stride=(1,), padding=(2,))
  (bn1): BatchNorm1d(64, eps=1e-05, momentum=0.1, affine=True, track_running_stats=True)
  (pool1): MaxPool1d(kernel_size=2, stride=2, padding=0, dilation=1, ceil_mode=False)
  (conv2): Conv1d(64, 128, kernel_size=(5,), stride=(1,), padding=(2,))
  (bn2): BatchNorm1d(128, eps=1e-05, momentum=0.1, affine=True, track_running_stats=True)
  (pool2): MaxPool1d(kernel_size=2, stride=2, padding=0, dilation=1, ceil_mode=False)
  (conv3): Conv1d(128, 256, kernel_size=(3,), stride=(1,), padding=(1,))
  (bn3): BatchNorm1d(256, eps=1e-05, momentum=0.1, affine=True, track_running_stats=True)
  (pool3): MaxPool1d(kernel_size=2, stride=2, padding=0, dilation=1, ceil_mode=False)
  (dropout): Dropout(p=0.5, inplace=False)
  (fc1): Linear(in_features=24576, out_features=256, bias=True)
  (fc2): Linear(in_features=256, out_features=2, bias=True)
), CNNSAE(
  (spatial_attention): SpatialAttention(
    (attention): Sequential(
      (0): Linear(in_features=64, out_features=16, bias=True)
      (1): ReLU()
      (2): Linear(in_features=16, out_features=64, bias=True)
      (3): Sigmoid()
    )
  )
  (conv1): Conv1d(64, 64, kernel_size=(5,), stride=(1,), padding=(2,))
  (bn1): BatchNorm1d(64, eps=1e-05, momentum=0.1, affine=True, track_running_stats=True)
  (pool1): MaxPool1d(kernel_size=2, stride=2, padding=0, dilation=1, ceil_mode=False)
  (conv2): Conv1d(64, 128, kernel_size=(5,), stride=(1,), padding=(2,))
  (bn2): BatchNorm1d(128, eps=1e-05, momentum=0.1, affine=True, track_running_stats=True)
  (pool2): MaxPool1d(kernel_size=2, stride=2, padding=0, dilation=1, ceil_mode=False)
  (conv3): Conv1d(128, 256, kernel_size=(3,), stride=(1,), padding=(1,))
  (bn3): BatchNorm1d(256, eps=1e-05, momentum=0.1, affine=True, track_running_stats=True)
  (pool3): MaxPool1d(kernel_size=2, stride=2, padding=0, dilation=1, ceil_mode=False)
  (dropout): Dropout(p=0.5, inplace=False)
  (fc1): Linear(in_features=24576, out_features=256, bias=True)
  (fc2): Linear(in_features=256, out_features=2, bias=True)
), CNNSAE(
  (spatial_attention): SpatialAttention(
    (attention): Sequential(
      (0): Linear(in_features=64, out_features=16, bias=True)
      (1): ReLU()
      (2): Linear(in_features=16, out_features=64, bias=True)
      (3): Sigmoid()
    )
  )
  (conv1): Conv1d(64, 64, kernel_size=(5,), stride=(1,), padding=(2,))
  (bn1): BatchNorm1d(64, eps=1e-05, momentum=0.1, affine=True, track_running_stats=True)
  (pool1): MaxPool1d(kernel_size=2, stride=2, padding=0, dilation=1, ceil_mode=False)
  (conv2): Conv1d(64, 128, kernel_size=(5,), stride=(1,), padding=(2,))
  (bn2): BatchNorm1d(128, eps=1e-05, momentum=0.1, affine=True, track_running_stats=True)
  (pool2): MaxPool1d(kernel_size=2, stride=2, padding=0, dilation=1, ceil_mode=False)
  (conv3): Conv1d(128, 256, kernel_size=(3,), stride=(1,), padding=(1,))
  (bn3): BatchNorm1d(256, eps=1e-05, momentum=0.1, affine=True, track_running_stats=True)
  (pool3): MaxPool1d(kernel_size=2, stride=2, padding=0, dilation=1, ceil_mode=False)
  (dropout): Dropout(p=0.5, inplace=False)
  (fc1): Linear(in_features=24576, out_features=256, bias=True)
  (fc2): Linear(in_features=256, out_features=2, bias=True)
)]"
S008,252,64,0.9087301587301587,0.043830797687251066,0.9320987654320988,0.07145578335055693,0.7857142857142857,0.10101525445522108,0.8493395493395494,0.07282789776713375,0.9536564625850339,0.027009177464605284,0.9702380952380952,0.03035130662852846,"['Fc5', 'Fc3', 'Fc1', 'Fcz', 'Fc2', 'Fc4', 'Fc6', 'C5', 'C3', 'C1', 'Cz', 'C2', 'C4', 'C6', 'Cp5', 'Cp3', 'Cp1', 'Cpz', 'Cp2', 'Cp4', 'Cp6', 'Fp1', 'Fpz', 'Fp2', 'Af7', 'Af3', 'Afz', 'Af4', 'Af8', 'F7', 'F5', 'F3', 'F1', 'Fz', 'F2', 'F4', 'F6', 'F8', 'Ft7', 'Ft8', 'T7', 'T8', 'T9', 'T10', 'Tp7', 'Tp8', 'P7', 'P5', 'P3', 'P1', 'Pz', 'P2', 'P4', 'P6', 'P8', 'Po7', 'Po3', 'Poz', 'Po4', 'Po8', 'O1', 'Oz', 'O2', 'Iz']","[CNNSAE(
  (spatial_attention): SpatialAttention(
    (attention): Sequential(
      (0): Linear(in_features=64, out_features=16, bias=True)
      (1): ReLU()
      (2): Linear(in_features=16, out_features=64, bias=True)
      (3): Sigmoid()
    )
  )
  (conv1): Conv1d(64, 64, kernel_size=(5,), stride=(1,), padding=(2,))
  (bn1): BatchNorm1d(64, eps=1e-05, momentum=0.1, affine=True, track_running_stats=True)
  (pool1): MaxPool1d(kernel_size=2, stride=2, padding=0, dilation=1, ceil_mode=False)
  (conv2): Conv1d(64, 128, kernel_size=(5,), stride=(1,), padding=(2,))
  (bn2): BatchNorm1d(128, eps=1e-05, momentum=0.1, affine=True, track_running_stats=True)
  (pool2): MaxPool1d(kernel_size=2, stride=2, padding=0, dilation=1, ceil_mode=False)
  (conv3): Conv1d(128, 256, kernel_size=(3,), stride=(1,), padding=(1,))
  (bn3): BatchNorm1d(256, eps=1e-05, momentum=0.1, affine=True, track_running_stats=True)
  (pool3): MaxPool1d(kernel_size=2, stride=2, padding=0, dilation=1, ceil_mode=False)
  (dropout): Dropout(p=0.5, inplace=False)
  (fc1): Linear(in_features=24576, out_features=256, bias=True)
  (fc2): Linear(in_features=256, out_features=2, bias=True)
), CNNSAE(
  (spatial_attention): SpatialAttention(
    (attention): Sequential(
      (0): Linear(in_features=64, out_features=16, bias=True)
      (1): ReLU()
      (2): Linear(in_features=16, out_features=64, bias=True)
      (3): Sigmoid()
    )
  )
  (conv1): Conv1d(64, 64, kernel_size=(5,), stride=(1,), padding=(2,))
  (bn1): BatchNorm1d(64, eps=1e-05, momentum=0.1, affine=True, track_running_stats=True)
  (pool1): MaxPool1d(kernel_size=2, stride=2, padding=0, dilation=1, ceil_mode=False)
  (conv2): Conv1d(64, 128, kernel_size=(5,), stride=(1,), padding=(2,))
  (bn2): BatchNorm1d(128, eps=1e-05, momentum=0.1, affine=True, track_running_stats=True)
  (pool2): MaxPool1d(kernel_size=2, stride=2, padding=0, dilation=1, ceil_mode=False)
  (conv3): Conv1d(128, 256, kernel_size=(3,), stride=(1,), padding=(1,))
  (bn3): BatchNorm1d(256, eps=1e-05, momentum=0.1, affine=True, track_running_stats=True)
  (pool3): MaxPool1d(kernel_size=2, stride=2, padding=0, dilation=1, ceil_mode=False)
  (dropout): Dropout(p=0.5, inplace=False)
  (fc1): Linear(in_features=24576, out_features=256, bias=True)
  (fc2): Linear(in_features=256, out_features=2, bias=True)
), CNNSAE(
  (spatial_attention): SpatialAttention(
    (attention): Sequential(
      (0): Linear(in_features=64, out_features=16, bias=True)
      (1): ReLU()
      (2): Linear(in_features=16, out_features=64, bias=True)
      (3): Sigmoid()
    )
  )
  (conv1): Conv1d(64, 64, kernel_size=(5,), stride=(1,), padding=(2,))
  (bn1): BatchNorm1d(64, eps=1e-05, momentum=0.1, affine=True, track_running_stats=True)
  (pool1): MaxPool1d(kernel_size=2, stride=2, padding=0, dilation=1, ceil_mode=False)
  (conv2): Conv1d(64, 128, kernel_size=(5,), stride=(1,), padding=(2,))
  (bn2): BatchNorm1d(128, eps=1e-05, momentum=0.1, affine=True, track_running_stats=True)
  (pool2): MaxPool1d(kernel_size=2, stride=2, padding=0, dilation=1, ceil_mode=False)
  (conv3): Conv1d(128, 256, kernel_size=(3,), stride=(1,), padding=(1,))
  (bn3): BatchNorm1d(256, eps=1e-05, momentum=0.1, affine=True, track_running_stats=True)
  (pool3): MaxPool1d(kernel_size=2, stride=2, padding=0, dilation=1, ceil_mode=False)
  (dropout): Dropout(p=0.5, inplace=False)
  (fc1): Linear(in_features=24576, out_features=256, bias=True)
  (fc2): Linear(in_features=256, out_features=2, bias=True)
)]"
S011,252,64,0.8888888888888888,0.020234204419018968,0.9012967200610221,0.07172500693295733,0.7619047619047619,0.08908708063747475,0.8187629172480927,0.04000291812567846,0.9051870748299321,0.05194301172420937,0.9523809523809524,0.04208968935634207,"['Fc5', 'Fc3', 'Fc1', 'Fcz', 'Fc2', 'Fc4', 'Fc6', 'C5', 'C3', 'C1', 'Cz', 'C2', 'C4', 'C6', 'Cp5', 'Cp3', 'Cp1', 'Cpz', 'Cp2', 'Cp4', 'Cp6', 'Fp1', 'Fpz', 'Fp2', 'Af7', 'Af3', 'Afz', 'Af4', 'Af8', 'F7', 'F5', 'F3', 'F1', 'Fz', 'F2', 'F4', 'F6', 'F8', 'Ft7', 'Ft8', 'T7', 'T8', 'T9', 'T10', 'Tp7', 'Tp8', 'P7', 'P5', 'P3', 'P1', 'Pz', 'P2', 'P4', 'P6', 'P8', 'Po7', 'Po3', 'Poz', 'Po4', 'Po8', 'O1', 'Oz', 'O2', 'Iz']","[CNNSAE(
  (spatial_attention): SpatialAttention(
    (attention): Sequential(
      (0): Linear(in_features=64, out_features=16, bias=True)
      (1): ReLU()
      (2): Linear(in_features=16, out_features=64, bias=True)
      (3): Sigmoid()
    )
  )
  (conv1): Conv1d(64, 64, kernel_size=(5,), stride=(1,), padding=(2,))
  (bn1): BatchNorm1d(64, eps=1e-05, momentum=0.1, affine=True, track_running_stats=True)
  (pool1): MaxPool1d(kernel_size=2, stride=2, padding=0, dilation=1, ceil_mode=False)
  (conv2): Conv1d(64, 128, kernel_size=(5,), stride=(1,), padding=(2,))
  (bn2): BatchNorm1d(128, eps=1e-05, momentum=0.1, affine=True, track_running_stats=True)
  (pool2): MaxPool1d(kernel_size=2, stride=2, padding=0, dilation=1, ceil_mode=False)
  (conv3): Conv1d(128, 256, kernel_size=(3,), stride=(1,), padding=(1,))
  (bn3): BatchNorm1d(256, eps=1e-05, momentum=0.1, affine=True, track_running_stats=True)
  (pool3): MaxPool1d(kernel_size=2, stride=2, padding=0, dilation=1, ceil_mode=False)
  (dropout): Dropout(p=0.5, inplace=False)
  (fc1): Linear(in_features=24576, out_features=256, bias=True)
  (fc2): Linear(in_features=256, out_features=2, bias=True)
), CNNSAE(
  (spatial_attention): SpatialAttention(
    (attention): Sequential(
      (0): Linear(in_features=64, out_features=16, bias=True)
      (1): ReLU()
      (2): Linear(in_features=16, out_features=64, bias=True)
      (3): Sigmoid()
    )
  )
  (conv1): Conv1d(64, 64, kernel_size=(5,), stride=(1,), padding=(2,))
  (bn1): BatchNorm1d(64, eps=1e-05, momentum=0.1, affine=True, track_running_stats=True)
  (pool1): MaxPool1d(kernel_size=2, stride=2, padding=0, dilation=1, ceil_mode=False)
  (conv2): Conv1d(64, 128, kernel_size=(5,), stride=(1,), padding=(2,))
  (bn2): BatchNorm1d(128, eps=1e-05, momentum=0.1, affine=True, track_running_stats=True)
  (pool2): MaxPool1d(kernel_size=2, stride=2, padding=0, dilation=1, ceil_mode=False)
  (conv3): Conv1d(128, 256, kernel_size=(3,), stride=(1,), padding=(1,))
  (bn3): BatchNorm1d(256, eps=1e-05, momentum=0.1, affine=True, track_running_stats=True)
  (pool3): MaxPool1d(kernel_size=2, stride=2, padding=0, dilation=1, ceil_mode=False)
  (dropout): Dropout(p=0.5, inplace=False)
  (fc1): Linear(in_features=24576, out_features=256, bias=True)
  (fc2): Linear(in_features=256, out_features=2, bias=True)
), CNNSAE(
  (spatial_attention): SpatialAttention(
    (attention): Sequential(
      (0): Linear(in_features=64, out_features=16, bias=True)
      (1): ReLU()
      (2): Linear(in_features=16, out_features=64, bias=True)
      (3): Sigmoid()
    )
  )
  (conv1): Conv1d(64, 64, kernel_size=(5,), stride=(1,), padding=(2,))
  (bn1): BatchNorm1d(64, eps=1e-05, momentum=0.1, affine=True, track_running_stats=True)
  (pool1): MaxPool1d(kernel_size=2, stride=2, padding=0, dilation=1, ceil_mode=False)
  (conv2): Conv1d(64, 128, kernel_size=(5,), stride=(1,), padding=(2,))
  (bn2): BatchNorm1d(128, eps=1e-05, momentum=0.1, affine=True, track_running_stats=True)
  (pool2): MaxPool1d(kernel_size=2, stride=2, padding=0, dilation=1, ceil_mode=False)
  (conv3): Conv1d(128, 256, kernel_size=(3,), stride=(1,), padding=(1,))
  (bn3): BatchNorm1d(256, eps=1e-05, momentum=0.1, affine=True, track_running_stats=True)
  (pool3): MaxPool1d(kernel_size=2, stride=2, padding=0, dilation=1, ceil_mode=False)
  (dropout): Dropout(p=0.5, inplace=False)
  (fc1): Linear(in_features=24576, out_features=256, bias=True)
  (fc2): Linear(in_features=256, out_features=2, bias=True)
)]"
S014,252,64,0.8531746031746033,0.011223917161691244,0.8410766045548654,0.012701352916726536,0.6904761904761906,0.044543540318737376,0.7574149156517954,0.025137001098070707,0.882015306122449,0.03363011923080254,0.9345238095238096,0.008417937871268393,"['Fc5', 'Fc3', 'Fc1', 'Fcz', 'Fc2', 'Fc4', 'Fc6', 'C5', 'C3', 'C1', 'Cz', 'C2', 'C4', 'C6', 'Cp5', 'Cp3', 'Cp1', 'Cpz', 'Cp2', 'Cp4', 'Cp6', 'Fp1', 'Fpz', 'Fp2', 'Af7', 'Af3', 'Afz', 'Af4', 'Af8', 'F7', 'F5', 'F3', 'F1', 'Fz', 'F2', 'F4', 'F6', 'F8', 'Ft7', 'Ft8', 'T7', 'T8', 'T9', 'T10', 'Tp7', 'Tp8', 'P7', 'P5', 'P3', 'P1', 'Pz', 'P2', 'P4', 'P6', 'P8', 'Po7', 'Po3', 'Poz', 'Po4', 'Po8', 'O1', 'Oz', 'O2', 'Iz']","[CNNSAE(
  (spatial_attention): SpatialAttention(
    (attention): Sequential(
      (0): Linear(in_features=64, out_features=16, bias=True)
      (1): ReLU()
      (2): Linear(in_features=16, out_features=64, bias=True)
      (3): Sigmoid()
    )
  )
  (conv1): Conv1d(64, 64, kernel_size=(5,), stride=(1,), padding=(2,))
  (bn1): BatchNorm1d(64, eps=1e-05, momentum=0.1, affine=True, track_running_stats=True)
  (pool1): MaxPool1d(kernel_size=2, stride=2, padding=0, dilation=1, ceil_mode=False)
  (conv2): Conv1d(64, 128, kernel_size=(5,), stride=(1,), padding=(2,))
  (bn2): BatchNorm1d(128, eps=1e-05, momentum=0.1, affine=True, track_running_stats=True)
  (pool2): MaxPool1d(kernel_size=2, stride=2, padding=0, dilation=1, ceil_mode=False)
  (conv3): Conv1d(128, 256, kernel_size=(3,), stride=(1,), padding=(1,))
  (bn3): BatchNorm1d(256, eps=1e-05, momentum=0.1, affine=True, track_running_stats=True)
  (pool3): MaxPool1d(kernel_size=2, stride=2, padding=0, dilation=1, ceil_mode=False)
  (dropout): Dropout(p=0.5, inplace=False)
  (fc1): Linear(in_features=24576, out_features=256, bias=True)
  (fc2): Linear(in_features=256, out_features=2, bias=True)
), CNNSAE(
  (spatial_attention): SpatialAttention(
    (attention): Sequential(
      (0): Linear(in_features=64, out_features=16, bias=True)
      (1): ReLU()
      (2): Linear(in_features=16, out_features=64, bias=True)
      (3): Sigmoid()
    )
  )
  (conv1): Conv1d(64, 64, kernel_size=(5,), stride=(1,), padding=(2,))
  (bn1): BatchNorm1d(64, eps=1e-05, momentum=0.1, affine=True, track_running_stats=True)
  (pool1): MaxPool1d(kernel_size=2, stride=2, padding=0, dilation=1, ceil_mode=False)
  (conv2): Conv1d(64, 128, kernel_size=(5,), stride=(1,), padding=(2,))
  (bn2): BatchNorm1d(128, eps=1e-05, momentum=0.1, affine=True, track_running_stats=True)
  (pool2): MaxPool1d(kernel_size=2, stride=2, padding=0, dilation=1, ceil_mode=False)
  (conv3): Conv1d(128, 256, kernel_size=(3,), stride=(1,), padding=(1,))
  (bn3): BatchNorm1d(256, eps=1e-05, momentum=0.1, affine=True, track_running_stats=True)
  (pool3): MaxPool1d(kernel_size=2, stride=2, padding=0, dilation=1, ceil_mode=False)
  (dropout): Dropout(p=0.5, inplace=False)
  (fc1): Linear(in_features=24576, out_features=256, bias=True)
  (fc2): Linear(in_features=256, out_features=2, bias=True)
), CNNSAE(
  (spatial_attention): SpatialAttention(
    (attention): Sequential(
      (0): Linear(in_features=64, out_features=16, bias=True)
      (1): ReLU()
      (2): Linear(in_features=16, out_features=64, bias=True)
      (3): Sigmoid()
    )
  )
  (conv1): Conv1d(64, 64, kernel_size=(5,), stride=(1,), padding=(2,))
  (bn1): BatchNorm1d(64, eps=1e-05, momentum=0.1, affine=True, track_running_stats=True)
  (pool1): MaxPool1d(kernel_size=2, stride=2, padding=0, dilation=1, ceil_mode=False)
  (conv2): Conv1d(64, 128, kernel_size=(5,), stride=(1,), padding=(2,))
  (bn2): BatchNorm1d(128, eps=1e-05, momentum=0.1, affine=True, track_running_stats=True)
  (pool2): MaxPool1d(kernel_size=2, stride=2, padding=0, dilation=1, ceil_mode=False)
  (conv3): Conv1d(128, 256, kernel_size=(3,), stride=(1,), padding=(1,))
  (bn3): BatchNorm1d(256, eps=1e-05, momentum=0.1, affine=True, track_running_stats=True)
  (pool3): MaxPool1d(kernel_size=2, stride=2, padding=0, dilation=1, ceil_mode=False)
  (dropout): Dropout(p=0.5, inplace=False)
  (fc1): Linear(in_features=24576, out_features=256, bias=True)
  (fc2): Linear(in_features=256, out_features=2, bias=True)
)]"
S015,252,64,0.8452380952380952,0.025717224993681977,0.8763998682476943,0.06732685028625786,0.6309523809523809,0.07338588098772593,0.7292335115864527,0.05099472518308623,0.8805272108843537,0.02059552949793003,0.9523809523809524,0.030351306628528474,"['Fc5', 'Fc3', 'Fc1', 'Fcz', 'Fc2', 'Fc4', 'Fc6', 'C5', 'C3', 'C1', 'Cz', 'C2', 'C4', 'C6', 'Cp5', 'Cp3', 'Cp1', 'Cpz', 'Cp2', 'Cp4', 'Cp6', 'Fp1', 'Fpz', 'Fp2', 'Af7', 'Af3', 'Afz', 'Af4', 'Af8', 'F7', 'F5', 'F3', 'F1', 'Fz', 'F2', 'F4', 'F6', 'F8', 'Ft7', 'Ft8', 'T7', 'T8', 'T9', 'T10', 'Tp7', 'Tp8', 'P7', 'P5', 'P3', 'P1', 'Pz', 'P2', 'P4', 'P6', 'P8', 'Po7', 'Po3', 'Poz', 'Po4', 'Po8', 'O1', 'Oz', 'O2', 'Iz']","[CNNSAE(
  (spatial_attention): SpatialAttention(
    (attention): Sequential(
      (0): Linear(in_features=64, out_features=16, bias=True)
      (1): ReLU()
      (2): Linear(in_features=16, out_features=64, bias=True)
      (3): Sigmoid()
    )
  )
  (conv1): Conv1d(64, 64, kernel_size=(5,), stride=(1,), padding=(2,))
  (bn1): BatchNorm1d(64, eps=1e-05, momentum=0.1, affine=True, track_running_stats=True)
  (pool1): MaxPool1d(kernel_size=2, stride=2, padding=0, dilation=1, ceil_mode=False)
  (conv2): Conv1d(64, 128, kernel_size=(5,), stride=(1,), padding=(2,))
  (bn2): BatchNorm1d(128, eps=1e-05, momentum=0.1, affine=True, track_running_stats=True)
  (pool2): MaxPool1d(kernel_size=2, stride=2, padding=0, dilation=1, ceil_mode=False)
  (conv3): Conv1d(128, 256, kernel_size=(3,), stride=(1,), padding=(1,))
  (bn3): BatchNorm1d(256, eps=1e-05, momentum=0.1, affine=True, track_running_stats=True)
  (pool3): MaxPool1d(kernel_size=2, stride=2, padding=0, dilation=1, ceil_mode=False)
  (dropout): Dropout(p=0.5, inplace=False)
  (fc1): Linear(in_features=24576, out_features=256, bias=True)
  (fc2): Linear(in_features=256, out_features=2, bias=True)
), CNNSAE(
  (spatial_attention): SpatialAttention(
    (attention): Sequential(
      (0): Linear(in_features=64, out_features=16, bias=True)
      (1): ReLU()
      (2): Linear(in_features=16, out_features=64, bias=True)
      (3): Sigmoid()
    )
  )
  (conv1): Conv1d(64, 64, kernel_size=(5,), stride=(1,), padding=(2,))
  (bn1): BatchNorm1d(64, eps=1e-05, momentum=0.1, affine=True, track_running_stats=True)
  (pool1): MaxPool1d(kernel_size=2, stride=2, padding=0, dilation=1, ceil_mode=False)
  (conv2): Conv1d(64, 128, kernel_size=(5,), stride=(1,), padding=(2,))
  (bn2): BatchNorm1d(128, eps=1e-05, momentum=0.1, affine=True, track_running_stats=True)
  (pool2): MaxPool1d(kernel_size=2, stride=2, padding=0, dilation=1, ceil_mode=False)
  (conv3): Conv1d(128, 256, kernel_size=(3,), stride=(1,), padding=(1,))
  (bn3): BatchNorm1d(256, eps=1e-05, momentum=0.1, affine=True, track_running_stats=True)
  (pool3): MaxPool1d(kernel_size=2, stride=2, padding=0, dilation=1, ceil_mode=False)
  (dropout): Dropout(p=0.5, inplace=False)
  (fc1): Linear(in_features=24576, out_features=256, bias=True)
  (fc2): Linear(in_features=256, out_features=2, bias=True)
), CNNSAE(
  (spatial_attention): SpatialAttention(
    (attention): Sequential(
      (0): Linear(in_features=64, out_features=16, bias=True)
      (1): ReLU()
      (2): Linear(in_features=16, out_features=64, bias=True)
      (3): Sigmoid()
    )
  )
  (conv1): Conv1d(64, 64, kernel_size=(5,), stride=(1,), padding=(2,))
  (bn1): BatchNorm1d(64, eps=1e-05, momentum=0.1, affine=True, track_running_stats=True)
  (pool1): MaxPool1d(kernel_size=2, stride=2, padding=0, dilation=1, ceil_mode=False)
  (conv2): Conv1d(64, 128, kernel_size=(5,), stride=(1,), padding=(2,))
  (bn2): BatchNorm1d(128, eps=1e-05, momentum=0.1, affine=True, track_running_stats=True)
  (pool2): MaxPool1d(kernel_size=2, stride=2, padding=0, dilation=1, ceil_mode=False)
  (conv3): Conv1d(128, 256, kernel_size=(3,), stride=(1,), padding=(1,))
  (bn3): BatchNorm1d(256, eps=1e-05, momentum=0.1, affine=True, track_running_stats=True)
  (pool3): MaxPool1d(kernel_size=2, stride=2, padding=0, dilation=1, ceil_mode=False)
  (dropout): Dropout(p=0.5, inplace=False)
  (fc1): Linear(in_features=24576, out_features=256, bias=True)
  (fc2): Linear(in_features=256, out_features=2, bias=True)
)]"
S016,252,64,0.753968253968254,0.014847846772912463,0.7116584564860426,0.07322671098811973,0.4761904761904762,0.12140522651411395,0.5553029861475394,0.0634687784153453,0.734906462585034,0.03349007167754634,0.8928571428571429,0.06355403721447207,"['Fc5', 'Fc3', 'Fc1', 'Fcz', 'Fc2', 'Fc4', 'Fc6', 'C5', 'C3', 'C1', 'Cz', 'C2', 'C4', 'C6', 'Cp5', 'Cp3', 'Cp1', 'Cpz', 'Cp2', 'Cp4', 'Cp6', 'Fp1', 'Fpz', 'Fp2', 'Af7', 'Af3', 'Afz', 'Af4', 'Af8', 'F7', 'F5', 'F3', 'F1', 'Fz', 'F2', 'F4', 'F6', 'F8', 'Ft7', 'Ft8', 'T7', 'T8', 'T9', 'T10', 'Tp7', 'Tp8', 'P7', 'P5', 'P3', 'P1', 'Pz', 'P2', 'P4', 'P6', 'P8', 'Po7', 'Po3', 'Poz', 'Po4', 'Po8', 'O1', 'Oz', 'O2', 'Iz']","[CNNSAE(
  (spatial_attention): SpatialAttention(
    (attention): Sequential(
      (0): Linear(in_features=64, out_features=16, bias=True)
      (1): ReLU()
      (2): Linear(in_features=16, out_features=64, bias=True)
      (3): Sigmoid()
    )
  )
  (conv1): Conv1d(64, 64, kernel_size=(5,), stride=(1,), padding=(2,))
  (bn1): BatchNorm1d(64, eps=1e-05, momentum=0.1, affine=True, track_running_stats=True)
  (pool1): MaxPool1d(kernel_size=2, stride=2, padding=0, dilation=1, ceil_mode=False)
  (conv2): Conv1d(64, 128, kernel_size=(5,), stride=(1,), padding=(2,))
  (bn2): BatchNorm1d(128, eps=1e-05, momentum=0.1, affine=True, track_running_stats=True)
  (pool2): MaxPool1d(kernel_size=2, stride=2, padding=0, dilation=1, ceil_mode=False)
  (conv3): Conv1d(128, 256, kernel_size=(3,), stride=(1,), padding=(1,))
  (bn3): BatchNorm1d(256, eps=1e-05, momentum=0.1, affine=True, track_running_stats=True)
  (pool3): MaxPool1d(kernel_size=2, stride=2, padding=0, dilation=1, ceil_mode=False)
  (dropout): Dropout(p=0.5, inplace=False)
  (fc1): Linear(in_features=24576, out_features=256, bias=True)
  (fc2): Linear(in_features=256, out_features=2, bias=True)
), CNNSAE(
  (spatial_attention): SpatialAttention(
    (attention): Sequential(
      (0): Linear(in_features=64, out_features=16, bias=True)
      (1): ReLU()
      (2): Linear(in_features=16, out_features=64, bias=True)
      (3): Sigmoid()
    )
  )
  (conv1): Conv1d(64, 64, kernel_size=(5,), stride=(1,), padding=(2,))
  (bn1): BatchNorm1d(64, eps=1e-05, momentum=0.1, affine=True, track_running_stats=True)
  (pool1): MaxPool1d(kernel_size=2, stride=2, padding=0, dilation=1, ceil_mode=False)
  (conv2): Conv1d(64, 128, kernel_size=(5,), stride=(1,), padding=(2,))
  (bn2): BatchNorm1d(128, eps=1e-05, momentum=0.1, affine=True, track_running_stats=True)
  (pool2): MaxPool1d(kernel_size=2, stride=2, padding=0, dilation=1, ceil_mode=False)
  (conv3): Conv1d(128, 256, kernel_size=(3,), stride=(1,), padding=(1,))
  (bn3): BatchNorm1d(256, eps=1e-05, momentum=0.1, affine=True, track_running_stats=True)
  (pool3): MaxPool1d(kernel_size=2, stride=2, padding=0, dilation=1, ceil_mode=False)
  (dropout): Dropout(p=0.5, inplace=False)
  (fc1): Linear(in_features=24576, out_features=256, bias=True)
  (fc2): Linear(in_features=256, out_features=2, bias=True)
), CNNSAE(
  (spatial_attention): SpatialAttention(
    (attention): Sequential(
      (0): Linear(in_features=64, out_features=16, bias=True)
      (1): ReLU()
      (2): Linear(in_features=16, out_features=64, bias=True)
      (3): Sigmoid()
    )
  )
  (conv1): Conv1d(64, 64, kernel_size=(5,), stride=(1,), padding=(2,))
  (bn1): BatchNorm1d(64, eps=1e-05, momentum=0.1, affine=True, track_running_stats=True)
  (pool1): MaxPool1d(kernel_size=2, stride=2, padding=0, dilation=1, ceil_mode=False)
  (conv2): Conv1d(64, 128, kernel_size=(5,), stride=(1,), padding=(2,))
  (bn2): BatchNorm1d(128, eps=1e-05, momentum=0.1, affine=True, track_running_stats=True)
  (pool2): MaxPool1d(kernel_size=2, stride=2, padding=0, dilation=1, ceil_mode=False)
  (conv3): Conv1d(128, 256, kernel_size=(3,), stride=(1,), padding=(1,))
  (bn3): BatchNorm1d(256, eps=1e-05, momentum=0.1, affine=True, track_running_stats=True)
  (pool3): MaxPool1d(kernel_size=2, stride=2, padding=0, dilation=1, ceil_mode=False)
  (dropout): Dropout(p=0.5, inplace=False)
  (fc1): Linear(in_features=24576, out_features=256, bias=True)
  (fc2): Linear(in_features=256, out_features=2, bias=True)
)]"
