…
S001,252,64,0.9365079365079364,0.005611958580845595,0.9262610229276896,0.027411980760572205,0.8809523809523809,0.01683587574253689,0.9025361431021808,0.006985910644497981,0.9749149659863946,0.010726595077842589,0.9642857142857143,0.0145802960879951,"['Fc5', 'Fc3', 'Fc1', 'Fcz', 'Fc2', 'Fc4', 'Fc6', 'C5', 'C3', 'C1', 'Cz', 'C2', 'C4', 'C6', 'Cp5', 'Cp3', 'Cp1', 'Cpz', 'Cp2', 'Cp4', 'Cp6', 'Fp1', 'Fpz', 'Fp2', 'Af7', 'Af3', 'Afz', 'Af4', 'Af8', 'F7', 'F5', 'F3', 'F1', 'Fz', 'F2', 'F4', 'F6', 'F8', 'Ft7', 'Ft8', 'T7', 'T8', 'T9', 'T10', 'Tp7', 'Tp8', 'P7', 'P5', 'P3', 'P1', 'Pz', 'P2', 'P4', 'P6', 'P8', 'Po7', 'Po3', 'Poz', 'Po4', 'Po8', 'O1', 'Oz', 'O2', 'Iz']","[EEGNet(
  (conv1): Conv2d(1, 8, kernel_size=(1, 64), stride=(1, 1), padding=(0, 32), bias=False)
  (bn1): BatchNorm2d(8, eps=1e-05, momentum=0.1, affine=True, track_running_stats=True)
  (conv2): Conv2d(8, 16, kernel_size=(64, 1), stride=(1, 1), groups=8, bias=False)
  (bn2): BatchNorm2d(16, eps=1e-05, momentum=0.1, affine=True, track_running_stats=True)
  (pool1): AvgPool2d(kernel_size=(1, 4), stride=(1, 4), padding=0)
  (dropout1): Dropout(p=0.5, inplace=False)
  (conv3): Conv2d(16, 16, kernel_size=(1, 16), stride=(1, 1), padding=(0, 8), bias=False)
  (bn3): BatchNorm2d(16, eps=1e-05, momentum=0.1, affine=True, track_running_stats=True)
  (pool2): AvgPool2d(kernel_size=(1, 8), stride=(1, 8), padding=0)
  (dropout2): Dropout(p=0.5, inplace=False)
  (fc): Linear(in_features=384, out_features=2, bias=True)
), EEGNet(
  (conv1): Conv2d(1, 8, kernel_size=(1, 64), stride=(1, 1), padding=(0, 32), bias=False)
  (bn1): BatchNorm2d(8, eps=1e-05, momentum=0.1, affine=True, track_running_stats=True)
  (conv2): Conv2d(8, 16, kernel_size=(64, 1), stride=(1, 1), groups=8, bias=False)
  (bn2): BatchNorm2d(16, eps=1e-05, momentum=0.1, affine=True, track_running_stats=True)
  (pool1): AvgPool2d(kernel_size=(1, 4), stride=(1, 4), padding=0)
  (dropout1): Dropout(p=0.5, inplace=False)
  (conv3): Conv2d(16, 16, kernel_size=(1, 16), stride=(1, 1), padding=(0, 8), bias=False)
  (bn3): BatchNorm2d(16, eps=1e-05, momentum=0.1, affine=True, track_running_stats=True)
  (pool2): AvgPool2d(kernel_size=(1, 8), stride=(1, 8), padding=0)
  (dropout2): Dropout(p=0.5, inplace=False)
  (fc): Linear(in_features=384, out_features=2, bias=True)
), EEGNet(
  (conv1): Conv2d(1, 8, kernel_size=(1, 64), stride=(1, 1), padding=(0, 32), bias=False)
  (bn1): BatchNorm2d(8, eps=1e-05, momentum=0.1, affine=True, track_running_stats=True)
  (conv2): Conv2d(8, 16, kernel_size=(64, 1), stride=(1, 1), groups=8, bias=False)
  (bn2): BatchNorm2d(16, eps=1e-05, momentum=0.1, affine=True, track_running_stats=True)
  (pool1): AvgPool2d(kernel_size=(1, 4), stride=(1, 4), padding=0)
  (dropout1): Dropout(p=0.5, inplace=False)
  (conv3): Conv2d(16, 16, kernel_size=(1, 16), stride=(1, 1), padding=(0, 8), bias=False)
  (bn3): BatchNorm2d(16, eps=1e-05, momentum=0.1, affine=True, track_running_stats=True)
  (pool2): AvgPool2d(kernel_size=(1, 8), stride=(1, 8), padding=0)
  (dropout2): Dropout(p=0.5, inplace=False)
  (fc): Linear(in_features=384, out_features=2, bias=True)
)]"
S002,252,64,0.7896825396825395,0.024461960329241975,0.7293650793650794,0.05735191036552276,0.5952380952380952,0.07338588098772592,0.6519274376417233,0.04890421049022609,0.7784863945578232,0.02938906404555351,0.8869047619047619,0.036692940493862965,"['Fc5', 'Fc3', 'Fc1', 'Fcz', 'Fc2', 'Fc4', 'Fc6', 'C5', 'C3', 'C1', 'Cz', 'C2', 'C4', 'C6', 'Cp5', 'Cp3', 'Cp1', 'Cpz', 'Cp2', 'Cp4', 'Cp6', 'Fp1', 'Fpz', 'Fp2', 'Af7', 'Af3', 'Afz', 'Af4', 'Af8', 'F7', 'F5', 'F3', 'F1', 'Fz', 'F2', 'F4', 'F6', 'F8', 'Ft7', 'Ft8', 'T7', 'T8', 'T9', 'T10', 'Tp7', 'Tp8', 'P7', 'P5', 'P3', 'P1', 'Pz', 'P2', 'P4', 'P6', 'P8', 'Po7', 'Po3', 'Poz', 'Po4', 'Po8', 'O1', 'Oz', 'O2', 'Iz']","[EEGNet(
  (conv1): Conv2d(1, 8, kernel_size=(1, 64), stride=(1, 1), padding=(0, 32), bias=False)
  (bn1): BatchNorm2d(8, eps=1e-05, momentum=0.1, affine=True, track_running_stats=True)
  (conv2): Conv2d(8, 16, kernel_size=(64, 1), stride=(1, 1), groups=8, bias=False)
  (bn2): BatchNorm2d(16, eps=1e-05, momentum=0.1, affine=True, track_running_stats=True)
  (pool1): AvgPool2d(kernel_size=(1, 4), stride=(1, 4), padding=0)
  (dropout1): Dropout(p=0.5, inplace=False)
  (conv3): Conv2d(16, 16, kernel_size=(1, 16), stride=(1, 1), padding=(0, 8), bias=False)
  (bn3): BatchNorm2d(16, eps=1e-05, momentum=0.1, affine=True, track_running_stats=True)
  (pool2): AvgPool2d(kernel_size=(1, 8), stride=(1, 8), padding=0)
  (dropout2): Dropout(p=0.5, inplace=False)
  (fc): Linear(in_features=384, out_features=2, bias=True)
), EEGNet(
  (conv1): Conv2d(1, 8, kernel_size=(1, 64), stride=(1, 1), padding=(0, 32), bias=False)
  (bn1): BatchNorm2d(8, eps=1e-05, momentum=0.1, affine=True, track_running_stats=True)
  (conv2): Conv2d(8, 16, kernel_size=(64, 1), stride=(1, 1), groups=8, bias=False)
  (bn2): BatchNorm2d(16, eps=1e-05, momentum=0.1, affine=True, track_running_stats=True)
  (pool1): AvgPool2d(kernel_size=(1, 4), stride=(1, 4), padding=0)
  (dropout1): Dropout(p=0.5, inplace=False)
  (conv3): Conv2d(16, 16, kernel_size=(1, 16), stride=(1, 1), padding=(0, 8), bias=False)
  (bn3): BatchNorm2d(16, eps=1e-05, momentum=0.1, affine=True, track_running_stats=True)
  (pool2): AvgPool2d(kernel_size=(1, 8), stride=(1, 8), padding=0)
  (dropout2): Dropout(p=0.5, inplace=False)
  (fc): Linear(in_features=384, out_features=2, bias=True)
), EEGNet(
  (conv1): Conv2d(1, 8, kernel_size=(1, 64), stride=(1, 1), padding=(0, 32), bias=False)
  (bn1): BatchNorm2d(8, eps=1e-05, momentum=0.1, affine=True, track_running_stats=True)
  (conv2): Conv2d(8, 16, kernel_size=(64, 1), stride=(1, 1), groups=8, bias=False)
  (bn2): BatchNorm2d(16, eps=1e-05, momentum=0.1, affine=True, track_running_stats=True)
  (pool1): AvgPool2d(kernel_size=(1, 4), stride=(1, 4), padding=0)
  (dropout1): Dropout(p=0.5, inplace=False)
  (conv3): Conv2d(16, 16, kernel_size=(1, 16), stride=(1, 1), padding=(0, 8), bias=False)
  (bn3): BatchNorm2d(16, eps=1e-05, momentum=0.1, affine=True, track_running_stats=True)
  (pool2): AvgPool2d(kernel_size=(1, 8), stride=(1, 8), padding=0)
  (dropout2): Dropout(p=0.5, inplace=False)
  (fc): Linear(in_features=384, out_features=2, bias=True)
)]"
S005,252,64,0.9166666666666666,0.0350466701044756,0.8781103953517747,0.03769092606552015,0.8690476190476191,0.07338588098772593,0.8731086976701011,0.055279867821046706,0.9566326530612246,0.023035822579054007,0.9404761904761904,0.016835875742536838,"['Fc5', 'Fc3', 'Fc1', 'Fcz', 'Fc2', 'Fc4', 'Fc6', 'C5', 'C3', 'C1', 'Cz', 'C2', 'C4', 'C6', 'Cp5', 'Cp3', 'Cp1', 'Cpz', 'Cp2', 'Cp4', 'Cp6', 'Fp1', 'Fpz', 'Fp2', 'Af7', 'Af3', 'Afz', 'Af4', 'Af8', 'F7', 'F5', 'F3', 'F1', 'Fz', 'F2', 'F4', 'F6', 'F8', 'Ft7', 'Ft8', 'T7', 'T8', 'T9', 'T10', 'Tp7', 'Tp8', 'P7', 'P5', 'P3', 'P1', 'Pz', 'P2', 'P4', 'P6', 'P8', 'Po7', 'Po3', 'Poz', 'Po4', 'Po8', 'O1', 'Oz', 'O2', 'Iz']","[EEGNet(
  (conv1): Conv2d(1, 8, kernel_size=(1, 64), stride=(1, 1), padding=(0, 32), bias=False)
  (bn1): BatchNorm2d(8, eps=1e-05, momentum=0.1, affine=True, track_running_stats=True)
  (conv2): Conv2d(8, 16, kernel_size=(64, 1), stride=(1, 1), groups=8, bias=False)
  (bn2): BatchNorm2d(16, eps=1e-05, momentum=0.1, affine=True, track_running_stats=True)
  (pool1): AvgPool2d(kernel_size=(1, 4), stride=(1, 4), padding=0)
  (dropout1): Dropout(p=0.5, inplace=False)
  (conv3): Conv2d(16, 16, kernel_size=(1, 16), stride=(1, 1), padding=(0, 8), bias=False)
  (bn3): BatchNorm2d(16, eps=1e-05, momentum=0.1, affine=True, track_running_stats=True)
  (pool2): AvgPool2d(kernel_size=(1, 8), stride=(1, 8), padding=0)
  (dropout2): Dropout(p=0.5, inplace=False)
  (fc): Linear(in_features=384, out_features=2, bias=True)
), EEGNet(
  (conv1): Conv2d(1, 8, kernel_size=(1, 64), stride=(1, 1), padding=(0, 32), bias=False)
  (bn1): BatchNorm2d(8, eps=1e-05, momentum=0.1, affine=True, track_running_stats=True)
  (conv2): Conv2d(8, 16, kernel_size=(64, 1), stride=(1, 1), groups=8, bias=False)
  (bn2): BatchNorm2d(16, eps=1e-05, momentum=0.1, affine=True, track_running_stats=True)
  (pool1): AvgPool2d(kernel_size=(1, 4), stride=(1, 4), padding=0)
  (dropout1): Dropout(p=0.5, inplace=False)
  (conv3): Conv2d(16, 16, kernel_size=(1, 16), stride=(1, 1), padding=(0, 8), bias=False)
  (bn3): BatchNorm2d(16, eps=1e-05, momentum=0.1, affine=True, track_running_stats=True)
  (pool2): AvgPool2d(kernel_size=(1, 8), stride=(1, 8), padding=0)
  (dropout2): Dropout(p=0.5, inplace=False)
  (fc): Linear(in_features=384, out_features=2, bias=True)
), EEGNet(
  (conv1): Conv2d(1, 8, kernel_size=(1, 64), stride=(1, 1), padding=(0, 32), bias=False)
  (bn1): BatchNorm2d(8, eps=1e-05, momentum=0.1, affine=True, track_running_stats=True)
  (conv2): Conv2d(8, 16, kernel_size=(64, 1), stride=(1, 1), groups=8, bias=False)
  (bn2): BatchNorm2d(16, eps=1e-05, momentum=0.1, affine=True, track_running_stats=True)
  (pool1): AvgPool2d(kernel_size=(1, 4), stride=(1, 4), padding=0)
  (dropout1): Dropout(p=0.5, inplace=False)
  (conv3): Conv2d(16, 16, kernel_size=(1, 16), stride=(1, 1), padding=(0, 8), bias=False)
  (bn3): BatchNorm2d(16, eps=1e-05, momentum=0.1, affine=True, track_running_stats=True)
  (pool2): AvgPool2d(kernel_size=(1, 8), stride=(1, 8), padding=0)
  (dropout2): Dropout(p=0.5, inplace=False)
  (fc): Linear(in_features=384, out_features=2, bias=True)
)]"
S006,252,64,0.9246031746031745,0.031246062992110354,0.893172919034988,0.0572494982196009,0.8809523809523809,0.044543540318737425,0.8865450663696278,0.04638007094093584,0.9725765306122449,0.0239023488157872,0.9464285714285715,0.0291605921759902,"['Fc5', 'Fc3', 'Fc1', 'Fcz', 'Fc2', 'Fc4', 'Fc6', 'C5', 'C3', 'C1', 'Cz', 'C2', 'C4', 'C6', 'Cp5', 'Cp3', 'Cp1', 'Cpz', 'Cp2', 'Cp4', 'Cp6', 'Fp1', 'Fpz', 'Fp2', 'Af7', 'Af3', 'Afz', 'Af4', 'Af8', 'F7', 'F5', 'F3', 'F1', 'Fz', 'F2', 'F4', 'F6', 'F8', 'Ft7', 'Ft8', 'T7', 'T8', 'T9', 'T10', 'Tp7', 'Tp8', 'P7', 'P5', 'P3', 'P1', 'Pz', 'P2', 'P4', 'P6', 'P8', 'Po7', 'Po3', 'Poz', 'Po4', 'Po8', 'O1', 'Oz', 'O2', 'Iz']","[EEGNet(
  (conv1): Conv2d(1, 8, kernel_size=(1, 64), stride=(1, 1), padding=(0, 32), bias=False)
  (bn1): BatchNorm2d(8, eps=1e-05, momentum=0.1, affine=True, track_running_stats=True)
  (conv2): Conv2d(8, 16, kernel_size=(64, 1), stride=(1, 1), groups=8, bias=False)
  (bn2): BatchNorm2d(16, eps=1e-05, momentum=0.1, affine=True, track_running_stats=True)
  (pool1): AvgPool2d(kernel_size=(1, 4), stride=(1, 4), padding=0)
  (dropout1): Dropout(p=0.5, inplace=False)
  (conv3): Conv2d(16, 16, kernel_size=(1, 16), stride=(1, 1), padding=(0, 8), bias=False)
  (bn3): BatchNorm2d(16, eps=1e-05, momentum=0.1, affine=True, track_running_stats=True)
  (pool2): AvgPool2d(kernel_size=(1, 8), stride=(1, 8), padding=0)
  (dropout2): Dropout(p=0.5, inplace=False)
  (fc): Linear(in_features=384, out_features=2, bias=True)
), EEGNet(
  (conv1): Conv2d(1, 8, kernel_size=(1, 64), stride=(1, 1), padding=(0, 32), bias=False)
  (bn1): BatchNorm2d(8, eps=1e-05, momentum=0.1, affine=True, track_running_stats=True)
  (conv2): Conv2d(8, 16, kernel_size=(64, 1), stride=(1, 1), groups=8, bias=False)
  (bn2): BatchNorm2d(16, eps=1e-05, momentum=0.1, affine=True, track_running_stats=True)
  (pool1): AvgPool2d(kernel_size=(1, 4), stride=(1, 4), padding=0)
  (dropout1): Dropout(p=0.5, inplace=False)
  (conv3): Conv2d(16, 16, kernel_size=(1, 16), stride=(1, 1), padding=(0, 8), bias=False)
  (bn3): BatchNorm2d(16, eps=1e-05, momentum=0.1, affine=True, track_running_stats=True)
  (pool2): AvgPool2d(kernel_size=(1, 8), stride=(1, 8), padding=0)
  (dropout2): Dropout(p=0.5, inplace=False)
  (fc): Linear(in_features=384, out_features=2, bias=True)
), EEGNet(
  (conv1): Conv2d(1, 8, kernel_size=(1, 64), stride=(1, 1), padding=(0, 32), bias=False)
  (bn1): BatchNorm2d(8, eps=1e-05, momentum=0.1, affine=True, track_running_stats=True)
  (conv2): Conv2d(8, 16, kernel_size=(64, 1), stride=(1, 1), groups=8, bias=False)
  (bn2): BatchNorm2d(16, eps=1e-05, momentum=0.1, affine=True, track_running_stats=True)
  (pool1): AvgPool2d(kernel_size=(1, 4), stride=(1, 4), padding=0)
  (dropout1): Dropout(p=0.5, inplace=False)
  (conv3): Conv2d(16, 16, kernel_size=(1, 16), stride=(1, 1), padding=(0, 8), bias=False)
  (bn3): BatchNorm2d(16, eps=1e-05, momentum=0.1, affine=True, track_running_stats=True)
  (pool2): AvgPool2d(kernel_size=(1, 8), stride=(1, 8), padding=0)
  (dropout2): Dropout(p=0.5, inplace=False)
  (fc): Linear(in_features=384, out_features=2, bias=True)
)]"
S007,252,64,0.9603174603174603,0.02023420441901902,0.962857142857143,0.02923049381566248,0.9166666666666666,0.044543540318737425,0.9386833292493669,0.03190288071131422,0.9861819727891157,0.006277560824929151,0.9821428571428571,0.0145802960879951,"['Fc5', 'Fc3', 'Fc1', 'Fcz', 'Fc2', 'Fc4', 'Fc6', 'C5', 'C3', 'C1', 'Cz', 'C2', 'C4', 'C6', 'Cp5', 'Cp3', 'Cp1', 'Cpz', 'Cp2', 'Cp4', 'Cp6', 'Fp1', 'Fpz', 'Fp2', 'Af7', 'Af3', 'Afz', 'Af4', 'Af8', 'F7', 'F5', 'F3', 'F1', 'Fz', 'F2', 'F4', 'F6', 'F8', 'Ft7', 'Ft8', 'T7', 'T8', 'T9', 'T10', 'Tp7', 'Tp8', 'P7', 'P5', 'P3', 'P1', 'Pz', 'P2', 'P4', 'P6', 'P8', 'Po7', 'Po3', 'Poz', 'Po4', 'Po8', 'O1', 'Oz', 'O2', 'Iz']","[EEGNet(
  (conv1): Conv2d(1, 8, kernel_size=(1, 64), stride=(1, 1), padding=(0, 32), bias=False)
  (bn1): BatchNorm2d(8, eps=1e-05, momentum=0.1, affine=True, track_running_stats=True)
  (conv2): Conv2d(8, 16, kernel_size=(64, 1), stride=(1, 1), groups=8, bias=False)
  (bn2): BatchNorm2d(16, eps=1e-05, momentum=0.1, affine=True, track_running_stats=True)
  (pool1): AvgPool2d(kernel_size=(1, 4), stride=(1, 4), padding=0)
  (dropout1): Dropout(p=0.5, inplace=False)
  (conv3): Conv2d(16, 16, kernel_size=(1, 16), stride=(1, 1), padding=(0, 8), bias=False)
  (bn3): BatchNorm2d(16, eps=1e-05, momentum=0.1, affine=True, track_running_stats=True)
  (pool2): AvgPool2d(kernel_size=(1, 8), stride=(1, 8), padding=0)
  (dropout2): Dropout(p=0.5, inplace=False)
  (fc): Linear(in_features=384, out_features=2, bias=True)
), EEGNet(
  (conv1): Conv2d(1, 8, kernel_size=(1, 64), stride=(1, 1), padding=(0, 32), bias=False)
  (bn1): BatchNorm2d(8, eps=1e-05, momentum=0.1, affine=True, track_running_stats=True)
  (conv2): Conv2d(8, 16, kernel_size=(64, 1), stride=(1, 1), groups=8, bias=False)
  (bn2): BatchNorm2d(16, eps=1e-05, momentum=0.1, affine=True, track_running_stats=True)
  (pool1): AvgPool2d(kernel_size=(1, 4), stride=(1, 4), padding=0)
  (dropout1): Dropout(p=0.5, inplace=False)
  (conv3): Conv2d(16, 16, kernel_size=(1, 16), stride=(1, 1), padding=(0, 8), bias=False)
  (bn3): BatchNorm2d(16, eps=1e-05, momentum=0.1, affine=True, track_running_stats=True)
  (pool2): AvgPool2d(kernel_size=(1, 8), stride=(1, 8), padding=0)
  (dropout2): Dropout(p=0.5, inplace=False)
  (fc): Linear(in_features=384, out_features=2, bias=True)
), EEGNet(
  (conv1): Conv2d(1, 8, kernel_size=(1, 64), stride=(1, 1), padding=(0, 32), bias=False)
  (bn1): BatchNorm2d(8, eps=1e-05, momentum=0.1, affine=True, track_running_stats=True)
  (conv2): Conv2d(8, 16, kernel_size=(64, 1), stride=(1, 1), groups=8, bias=False)
  (bn2): BatchNorm2d(16, eps=1e-05, momentum=0.1, affine=True, track_running_stats=True)
  (pool1): AvgPool2d(kernel_size=(1, 4), stride=(1, 4), padding=0)
  (dropout1): Dropout(p=0.5, inplace=False)
  (conv3): Conv2d(16, 16, kernel_size=(1, 16), stride=(1, 1), padding=(0, 8), bias=False)
  (bn3): BatchNorm2d(16, eps=1e-05, momentum=0.1, affine=True, track_running_stats=True)
  (pool2): AvgPool2d(kernel_size=(1, 8), stride=(1, 8), padding=0)
  (dropout2): Dropout(p=0.5, inplace=False)
  (fc): Linear(in_features=384, out_features=2, bias=True)
)]"
S008,252,64,0.9761904761904762,0.0,0.965873015873016,0.027239686193223034,0.9642857142857143,0.0291605921759902,0.9642553062093292,0.0010430014526632845,0.9931972789115647,0.00286792890374829,0.9821428571428572,0.0145802960879951,"['Fc5', 'Fc3', 'Fc1', 'Fcz', 'Fc2', 'Fc4', 'Fc6', 'C5', 'C3', 'C1', 'Cz', 'C2', 'C4', 'C6', 'Cp5', 'Cp3', 'Cp1', 'Cpz', 'Cp2', 'Cp4', 'Cp6', 'Fp1', 'Fpz', 'Fp2', 'Af7', 'Af3', 'Afz', 'Af4', 'Af8', 'F7', 'F5', 'F3', 'F1', 'Fz', 'F2', 'F4', 'F6', 'F8', 'Ft7', 'Ft8', 'T7', 'T8', 'T9', 'T10', 'Tp7', 'Tp8', 'P7', 'P5', 'P3', 'P1', 'Pz', 'P2', 'P4', 'P6', 'P8', 'Po7', 'Po3', 'Poz', 'Po4', 'Po8', 'O1', 'Oz', 'O2', 'Iz']","[EEGNet(
  (conv1): Conv2d(1, 8, kernel_size=(1, 64), stride=(1, 1), padding=(0, 32), bias=False)
  (bn1): BatchNorm2d(8, eps=1e-05, momentum=0.1, affine=True, track_running_stats=True)
  (conv2): Conv2d(8, 16, kernel_size=(64, 1), stride=(1, 1), groups=8, bias=False)
  (bn2): BatchNorm2d(16, eps=1e-05, momentum=0.1, affine=True, track_running_stats=True)
  (pool1): AvgPool2d(kernel_size=(1, 4), stride=(1, 4), padding=0)
  (dropout1): Dropout(p=0.5, inplace=False)
  (conv3): Conv2d(16, 16, kernel_size=(1, 16), stride=(1, 1), padding=(0, 8), bias=False)
  (bn3): BatchNorm2d(16, eps=1e-05, momentum=0.1, affine=True, track_running_stats=True)
  (pool2): AvgPool2d(kernel_size=(1, 8), stride=(1, 8), padding=0)
  (dropout2): Dropout(p=0.5, inplace=False)
  (fc): Linear(in_features=384, out_features=2, bias=True)
), EEGNet(
  (conv1): Conv2d(1, 8, kernel_size=(1, 64), stride=(1, 1), padding=(0, 32), bias=False)
  (bn1): BatchNorm2d(8, eps=1e-05, momentum=0.1, affine=True, track_running_stats=True)
  (conv2): Conv2d(8, 16, kernel_size=(64, 1), stride=(1, 1), groups=8, bias=False)
  (bn2): BatchNorm2d(16, eps=1e-05, momentum=0.1, affine=True, track_running_stats=True)
  (pool1): AvgPool2d(kernel_size=(1, 4), stride=(1, 4), padding=0)
  (dropout1): Dropout(p=0.5, inplace=False)
  (conv3): Conv2d(16, 16, kernel_size=(1, 16), stride=(1, 1), padding=(0, 8), bias=False)
  (bn3): BatchNorm2d(16, eps=1e-05, momentum=0.1, affine=True, track_running_stats=True)
  (pool2): AvgPool2d(kernel_size=(1, 8), stride=(1, 8), padding=0)
  (dropout2): Dropout(p=0.5, inplace=False)
  (fc): Linear(in_features=384, out_features=2, bias=True)
), EEGNet(
  (conv1): Conv2d(1, 8, kernel_size=(1, 64), stride=(1, 1), padding=(0, 32), bias=False)
  (bn1): BatchNorm2d(8, eps=1e-05, momentum=0.1, affine=True, track_running_stats=True)
  (conv2): Conv2d(8, 16, kernel_size=(64, 1), stride=(1, 1), groups=8, bias=False)
  (bn2): BatchNorm2d(16, eps=1e-05, momentum=0.1, affine=True, track_running_stats=True)
  (pool1): AvgPool2d(kernel_size=(1, 4), stride=(1, 4), padding=0)
  (dropout1): Dropout(p=0.5, inplace=False)
  (conv3): Conv2d(16, 16, kernel_size=(1, 16), stride=(1, 1), padding=(0, 8), bias=False)
  (bn3): BatchNorm2d(16, eps=1e-05, momentum=0.1, affine=True, track_running_stats=True)
  (pool2): AvgPool2d(kernel_size=(1, 8), stride=(1, 8), padding=0)
  (dropout2): Dropout(p=0.5, inplace=False)
  (fc): Linear(in_features=384, out_features=2, bias=True)
)]"
S011,252,64,0.9126984126984127,0.022447834323382487,0.8603174603174603,0.029504175072128772,0.880952380952381,0.04454354031873743,0.870279146141215,0.03457548717445909,0.9409013605442178,0.01601034896578468,0.9285714285714285,0.0145802960879951,"['Fc5', 'Fc3', 'Fc1', 'Fcz', 'Fc2', 'Fc4', 'Fc6', 'C5', 'C3', 'C1', 'Cz', 'C2', 'C4', 'C6', 'Cp5', 'Cp3', 'Cp1', 'Cpz', 'Cp2', 'Cp4', 'Cp6', 'Fp1', 'Fpz', 'Fp2', 'Af7', 'Af3', 'Afz', 'Af4', 'Af8', 'F7', 'F5', 'F3', 'F1', 'Fz', 'F2', 'F4', 'F6', 'F8', 'Ft7', 'Ft8', 'T7', 'T8', 'T9', 'T10', 'Tp7', 'Tp8', 'P7', 'P5', 'P3', 'P1', 'Pz', 'P2', 'P4', 'P6', 'P8', 'Po7', 'Po3', 'Poz', 'Po4', 'Po8', 'O1', 'Oz', 'O2', 'Iz']","[EEGNet(
  (conv1): Conv2d(1, 8, kernel_size=(1, 64), stride=(1, 1), padding=(0, 32), bias=False)
  (bn1): BatchNorm2d(8, eps=1e-05, momentum=0.1, affine=True, track_running_stats=True)
  (conv2): Conv2d(8, 16, kernel_size=(64, 1), stride=(1, 1), groups=8, bias=False)
  (bn2): BatchNorm2d(16, eps=1e-05, momentum=0.1, affine=True, track_running_stats=True)
  (pool1): AvgPool2d(kernel_size=(1, 4), stride=(1, 4), padding=0)
  (dropout1): Dropout(p=0.5, inplace=False)
  (conv3): Conv2d(16, 16, kernel_size=(1, 16), stride=(1, 1), padding=(0, 8), bias=False)
  (bn3): BatchNorm2d(16, eps=1e-05, momentum=0.1, affine=True, track_running_stats=True)
  (pool2): AvgPool2d(kernel_size=(1, 8), stride=(1, 8), padding=0)
  (dropout2): Dropout(p=0.5, inplace=False)
  (fc): Linear(in_features=384, out_features=2, bias=True)
), EEGNet(
  (conv1): Conv2d(1, 8, kernel_size=(1, 64), stride=(1, 1), padding=(0, 32), bias=False)
  (bn1): BatchNorm2d(8, eps=1e-05, momentum=0.1, affine=True, track_running_stats=True)
  (conv2): Conv2d(8, 16, kernel_size=(64, 1), stride=(1, 1), groups=8, bias=False)
  (bn2): BatchNorm2d(16, eps=1e-05, momentum=0.1, affine=True, track_running_stats=True)
  (pool1): AvgPool2d(kernel_size=(1, 4), stride=(1, 4), padding=0)
  (dropout1): Dropout(p=0.5, inplace=False)
  (conv3): Conv2d(16, 16, kernel_size=(1, 16), stride=(1, 1), padding=(0, 8), bias=False)
  (bn3): BatchNorm2d(16, eps=1e-05, momentum=0.1, affine=True, track_running_stats=True)
  (pool2): AvgPool2d(kernel_size=(1, 8), stride=(1, 8), padding=0)
  (dropout2): Dropout(p=0.5, inplace=False)
  (fc): Linear(in_features=384, out_features=2, bias=True)
), EEGNet(
  (conv1): Conv2d(1, 8, kernel_size=(1, 64), stride=(1, 1), padding=(0, 32), bias=False)
  (bn1): BatchNorm2d(8, eps=1e-05, momentum=0.1, affine=True, track_running_stats=True)
  (conv2): Conv2d(8, 16, kernel_size=(64, 1), stride=(1, 1), groups=8, bias=False)
  (bn2): BatchNorm2d(16, eps=1e-05, momentum=0.1, affine=True, track_running_stats=True)
  (pool1): AvgPool2d(kernel_size=(1, 4), stride=(1, 4), padding=0)
  (dropout1): Dropout(p=0.5, inplace=False)
  (conv3): Conv2d(16, 16, kernel_size=(1, 16), stride=(1, 1), padding=(0, 8), bias=False)
  (bn3): BatchNorm2d(16, eps=1e-05, momentum=0.1, affine=True, track_running_stats=True)
  (pool2): AvgPool2d(kernel_size=(1, 8), stride=(1, 8), padding=0)
  (dropout2): Dropout(p=0.5, inplace=False)
  (fc): Linear(in_features=384, out_features=2, bias=True)
)]"
S014,252,64,0.876984126984127,0.031246062992110354,0.9061996779388083,0.012329623857579354,0.7023809523809522,0.0937381889763311,0.7884451439438651,0.06626144038686378,0.9124149659863945,0.05334910269654535,0.9642857142857143,0.0,"['Fc5', 'Fc3', 'Fc1', 'Fcz', 'Fc2', 'Fc4', 'Fc6', 'C5', 'C3', 'C1', 'Cz', 'C2', 'C4', 'C6', 'Cp5', 'Cp3', 'Cp1', 'Cpz', 'Cp2', 'Cp4', 'Cp6', 'Fp1', 'Fpz', 'Fp2', 'Af7', 'Af3', 'Afz', 'Af4', 'Af8', 'F7', 'F5', 'F3', 'F1', 'Fz', 'F2', 'F4', 'F6', 'F8', 'Ft7', 'Ft8', 'T7', 'T8', 'T9', 'T10', 'Tp7', 'Tp8', 'P7', 'P5', 'P3', 'P1', 'Pz', 'P2', 'P4', 'P6', 'P8', 'Po7', 'Po3', 'Poz', 'Po4', 'Po8', 'O1', 'Oz', 'O2', 'Iz']","[EEGNet(
  (conv1): Conv2d(1, 8, kernel_size=(1, 64), stride=(1, 1), padding=(0, 32), bias=False)
  (bn1): BatchNorm2d(8, eps=1e-05, momentum=0.1, affine=True, track_running_stats=True)
  (conv2): Conv2d(8, 16, kernel_size=(64, 1), stride=(1, 1), groups=8, bias=False)
  (bn2): BatchNorm2d(16, eps=1e-05, momentum=0.1, affine=True, track_running_stats=True)
  (pool1): AvgPool2d(kernel_size=(1, 4), stride=(1, 4), padding=0)
  (dropout1): Dropout(p=0.5, inplace=False)
  (conv3): Conv2d(16, 16, kernel_size=(1, 16), stride=(1, 1), padding=(0, 8), bias=False)
  (bn3): BatchNorm2d(16, eps=1e-05, momentum=0.1, affine=True, track_running_stats=True)
  (pool2): AvgPool2d(kernel_size=(1, 8), stride=(1, 8), padding=0)
  (dropout2): Dropout(p=0.5, inplace=False)
  (fc): Linear(in_features=384, out_features=2, bias=True)
), EEGNet(
  (conv1): Conv2d(1, 8, kernel_size=(1, 64), stride=(1, 1), padding=(0, 32), bias=False)
  (bn1): BatchNorm2d(8, eps=1e-05, momentum=0.1, affine=True, track_running_stats=True)
  (conv2): Conv2d(8, 16, kernel_size=(64, 1), stride=(1, 1), groups=8, bias=False)
  (bn2): BatchNorm2d(16, eps=1e-05, momentum=0.1, affine=True, track_running_stats=True)
  (pool1): AvgPool2d(kernel_size=(1, 4), stride=(1, 4), padding=0)
  (dropout1): Dropout(p=0.5, inplace=False)
  (conv3): Conv2d(16, 16, kernel_size=(1, 16), stride=(1, 1), padding=(0, 8), bias=False)
  (bn3): BatchNorm2d(16, eps=1e-05, momentum=0.1, affine=True, track_running_stats=True)
  (pool2): AvgPool2d(kernel_size=(1, 8), stride=(1, 8), padding=0)
  (dropout2): Dropout(p=0.5, inplace=False)
  (fc): Linear(in_features=384, out_features=2, bias=True)
), EEGNet(
  (conv1): Conv2d(1, 8, kernel_size=(1, 64), stride=(1, 1), padding=(0, 32), bias=False)
  (bn1): BatchNorm2d(8, eps=1e-05, momentum=0.1, affine=True, track_running_stats=True)
  (conv2): Conv2d(8, 16, kernel_size=(64, 1), stride=(1, 1), groups=8, bias=False)
  (bn2): BatchNorm2d(16, eps=1e-05, momentum=0.1, affine=True, track_running_stats=True)
  (pool1): AvgPool2d(kernel_size=(1, 4), stride=(1, 4), padding=0)
  (dropout1): Dropout(p=0.5, inplace=False)
  (conv3): Conv2d(16, 16, kernel_size=(1, 16), stride=(1, 1), padding=(0, 8), bias=False)
  (bn3): BatchNorm2d(16, eps=1e-05, momentum=0.1, affine=True, track_running_stats=True)
  (pool2): AvgPool2d(kernel_size=(1, 8), stride=(1, 8), padding=0)
  (dropout2): Dropout(p=0.5, inplace=False)
  (fc): Linear(in_features=384, out_features=2, bias=True)
)]"
S015,252,64,0.9126984126984127,0.03413621137715325,0.8939974457215837,0.08454237120528921,0.8452380952380952,0.016835875742536838,0.867607246554615,0.047519160185348866,0.9417517006802721,0.015555066437012526,0.9464285714285715,0.0437408882639853,"['Fc5', 'Fc3', 'Fc1', 'Fcz', 'Fc2', 'Fc4', 'Fc6', 'C5', 'C3', 'C1', 'Cz', 'C2', 'C4', 'C6', 'Cp5', 'Cp3', 'Cp1', 'Cpz', 'Cp2', 'Cp4', 'Cp6', 'Fp1', 'Fpz', 'Fp2', 'Af7', 'Af3', 'Afz', 'Af4', 'Af8', 'F7', 'F5', 'F3', 'F1', 'Fz', 'F2', 'F4', 'F6', 'F8', 'Ft7', 'Ft8', 'T7', 'T8', 'T9', 'T10', 'Tp7', 'Tp8', 'P7', 'P5', 'P3', 'P1', 'Pz', 'P2', 'P4', 'P6', 'P8', 'Po7', 'Po3', 'Poz', 'Po4', 'Po8', 'O1', 'Oz', 'O2', 'Iz']","[EEGNet(
  (conv1): Conv2d(1, 8, kernel_size=(1, 64), stride=(1, 1), padding=(0, 32), bias=False)
  (bn1): BatchNorm2d(8, eps=1e-05, momentum=0.1, affine=True, track_running_stats=True)
  (conv2): Conv2d(8, 16, kernel_size=(64, 1), stride=(1, 1), groups=8, bias=False)
  (bn2): BatchNorm2d(16, eps=1e-05, momentum=0.1, affine=True, track_running_stats=True)
  (pool1): AvgPool2d(kernel_size=(1, 4), stride=(1, 4), padding=0)
  (dropout1): Dropout(p=0.5, inplace=False)
  (conv3): Conv2d(16, 16, kernel_size=(1, 16), stride=(1, 1), padding=(0, 8), bias=False)
  (bn3): BatchNorm2d(16, eps=1e-05, momentum=0.1, affine=True, track_running_stats=True)
  (pool2): AvgPool2d(kernel_size=(1, 8), stride=(1, 8), padding=0)
  (dropout2): Dropout(p=0.5, inplace=False)
  (fc): Linear(in_features=384, out_features=2, bias=True)
), EEGNet(
  (conv1): Conv2d(1, 8, kernel_size=(1, 64), stride=(1, 1), padding=(0, 32), bias=False)
  (bn1): BatchNorm2d(8, eps=1e-05, momentum=0.1, affine=True, track_running_stats=True)
  (conv2): Conv2d(8, 16, kernel_size=(64, 1), stride=(1, 1), groups=8, bias=False)
  (bn2): BatchNorm2d(16, eps=1e-05, momentum=0.1, affine=True, track_running_stats=True)
  (pool1): AvgPool2d(kernel_size=(1, 4), stride=(1, 4), padding=0)
  (dropout1): Dropout(p=0.5, inplace=False)
  (conv3): Conv2d(16, 16, kernel_size=(1, 16), stride=(1, 1), padding=(0, 8), bias=False)
  (bn3): BatchNorm2d(16, eps=1e-05, momentum=0.1, affine=True, track_running_stats=True)
  (pool2): AvgPool2d(kernel_size=(1, 8), stride=(1, 8), padding=0)
  (dropout2): Dropout(p=0.5, inplace=False)
  (fc): Linear(in_features=384, out_features=2, bias=True)
), EEGNet(
  (conv1): Conv2d(1, 8, kernel_size=(1, 64), stride=(1, 1), padding=(0, 32), bias=False)
  (bn1): BatchNorm2d(8, eps=1e-05, momentum=0.1, affine=True, track_running_stats=True)
  (conv2): Conv2d(8, 16, kernel_size=(64, 1), stride=(1, 1), groups=8, bias=False)
  (bn2): BatchNorm2d(16, eps=1e-05, momentum=0.1, affine=True, track_running_stats=True)
  (pool1): AvgPool2d(kernel_size=(1, 4), stride=(1, 4), padding=0)
  (dropout1): Dropout(p=0.5, inplace=False)
  (conv3): Conv2d(16, 16, kernel_size=(1, 16), stride=(1, 1), padding=(0, 8), bias=False)
  (bn3): BatchNorm2d(16, eps=1e-05, momentum=0.1, affine=True, track_running_stats=True)
  (pool2): AvgPool2d(kernel_size=(1, 8), stride=(1, 8), padding=0)
  (dropout2): Dropout(p=0.5, inplace=False)
  (fc): Linear(in_features=384, out_features=2, bias=True)
)]"
S016,252,64,0.8174603174603176,0.034136211377153246,0.7629239766081871,0.066232091328036,0.6666666666666666,0.11040022018447265,0.7051546486893044,0.06422971519837031,0.7810374149659863,0.0482909727984452,0.8928571428571429,0.03857583749052298,"['Fc5', 'Fc3', 'Fc1', 'Fcz', 'Fc2', 'Fc4', 'Fc6', 'C5', 'C3', 'C1', 'Cz', 'C2', 'C4', 'C6', 'Cp5', 'Cp3', 'Cp1', 'Cpz', 'Cp2', 'Cp4', 'Cp6', 'Fp1', 'Fpz', 'Fp2', 'Af7', 'Af3', 'Afz', 'Af4', 'Af8', 'F7', 'F5', 'F3', 'F1', 'Fz', 'F2', 'F4', 'F6', 'F8', 'Ft7', 'Ft8', 'T7', 'T8', 'T9', 'T10', 'Tp7', 'Tp8', 'P7', 'P5', 'P3', 'P1', 'Pz', 'P2', 'P4', 'P6', 'P8', 'Po7', 'Po3', 'Poz', 'Po4', 'Po8', 'O1', 'Oz', 'O2', 'Iz']","[EEGNet(
  (conv1): Conv2d(1, 8, kernel_size=(1, 64), stride=(1, 1), padding=(0, 32), bias=False)
  (bn1): BatchNorm2d(8, eps=1e-05, momentum=0.1, affine=True, track_running_stats=True)
  (conv2): Conv2d(8, 16, kernel_size=(64, 1), stride=(1, 1), groups=8, bias=False)
  (bn2): BatchNorm2d(16, eps=1e-05, momentum=0.1, affine=True, track_running_stats=True)
  (pool1): AvgPool2d(kernel_size=(1, 4), stride=(1, 4), padding=0)
  (dropout1): Dropout(p=0.5, inplace=False)
  (conv3): Conv2d(16, 16, kernel_size=(1, 16), stride=(1, 1), padding=(0, 8), bias=False)
  (bn3): BatchNorm2d(16, eps=1e-05, momentum=0.1, affine=True, track_running_stats=True)
  (pool2): AvgPool2d(kernel_size=(1, 8), stride=(1, 8), padding=0)
  (dropout2): Dropout(p=0.5, inplace=False)
  (fc): Linear(in_features=384, out_features=2, bias=True)
), EEGNet(
  (conv1): Conv2d(1, 8, kernel_size=(1, 64), stride=(1, 1), padding=(0, 32), bias=False)
  (bn1): BatchNorm2d(8, eps=1e-05, momentum=0.1, affine=True, track_running_stats=True)
  (conv2): Conv2d(8, 16, kernel_size=(64, 1), stride=(1, 1), groups=8, bias=False)
  (bn2): BatchNorm2d(16, eps=1e-05, momentum=0.1, affine=True, track_running_stats=True)
  (pool1): AvgPool2d(kernel_size=(1, 4), stride=(1, 4), padding=0)
  (dropout1): Dropout(p=0.5, inplace=False)
  (conv3): Conv2d(16, 16, kernel_size=(1, 16), stride=(1, 1), padding=(0, 8), bias=False)
  (bn3): BatchNorm2d(16, eps=1e-05, momentum=0.1, affine=True, track_running_stats=True)
  (pool2): AvgPool2d(kernel_size=(1, 8), stride=(1, 8), padding=0)
  (dropout2): Dropout(p=0.5, inplace=False)
  (fc): Linear(in_features=384, out_features=2, bias=True)
), EEGNet(
  (conv1): Conv2d(1, 8, kernel_size=(1, 64), stride=(1, 1), padding=(0, 32), bias=False)
  (bn1): BatchNorm2d(8, eps=1e-05, momentum=0.1, affine=True, track_running_stats=True)
  (conv2): Conv2d(8, 16, kernel_size=(64, 1), stride=(1, 1), groups=8, bias=False)
  (bn2): BatchNorm2d(16, eps=1e-05, momentum=0.1, affine=True, track_running_stats=True)
  (pool1): AvgPool2d(kernel_size=(1, 4), stride=(1, 4), padding=0)
  (dropout1): Dropout(p=0.5, inplace=False)
  (conv3): Conv2d(16, 16, kernel_size=(1, 16), stride=(1, 1), padding=(0, 8), bias=False)
  (bn3): BatchNorm2d(16, eps=1e-05, momentum=0.1, affine=True, track_running_stats=True)
  (pool2): AvgPool2d(kernel_size=(1, 8), stride=(1, 8), padding=0)
  (dropout2): Dropout(p=0.5, inplace=False)
  (fc): Linear(in_features=384, out_features=2, bias=True)
)]"
