…
S001,252,64,0.8095238095238096,0.016835875742536838,0.7642051444233607,0.06273031476975681,0.6428571428571429,0.10514001031342675,0.6882852865903714,0.04734690731048729,0.7974064625850342,0.045145173670844876,0.8928571428571428,0.052570005156713374,"['Fc5', 'Fc3', 'Fc1', 'Fcz', 'Fc2', 'Fc4', 'Fc6', 'C5', 'C3', 'C1', 'Cz', 'C2', 'C4', 'C6', 'Cp5', 'Cp3', 'Cp1', 'Cpz', 'Cp2', 'Cp4', 'Cp6', 'Fp1', 'Fpz', 'Fp2', 'Af7', 'Af3', 'Afz', 'Af4', 'Af8', 'F7', 'F5', 'F3', 'F1', 'Fz', 'F2', 'F4', 'F6', 'F8', 'Ft7', 'Ft8', 'T7', 'T8', 'T9', 'T10', 'Tp7', 'Tp8', 'P7', 'P5', 'P3', 'P1', 'Pz', 'P2', 'P4', 'P6', 'P8', 'Po7', 'Po3', 'Poz', 'Po4', 'Po8', 'O1', 'Oz', 'O2', 'Iz']","[GCARM(
  (carm1): CARMBlock()
  (carm2): CARMBlock()
  (conv1): Conv1d(64, 128, kernel_size=(5,), stride=(1,), padding=(2,))
  (bn1): BatchNorm1d(128, eps=1e-05, momentum=0.1, affine=True, track_running_stats=True)
  (pool1): MaxPool1d(kernel_size=2, stride=2, padding=0, dilation=1, ceil_mode=False)
  (conv2): Conv1d(128, 256, kernel_size=(5,), stride=(1,), padding=(2,))
  (bn2): BatchNorm1d(256, eps=1e-05, momentum=0.1, affine=True, track_running_stats=True)
  (pool2): MaxPool1d(kernel_size=2, stride=2, padding=0, dilation=1, ceil_mode=False)
  (conv3): Conv1d(256, 512, kernel_size=(3,), stride=(1,), padding=(1,))
  (bn3): BatchNorm1d(512, eps=1e-05, momentum=0.1, affine=True, track_running_stats=True)
  (pool3): MaxPool1d(kernel_size=2, stride=2, padding=0, dilation=1, ceil_mode=False)
  (dropout): Dropout(p=0.5, inplace=False)
  (fc1): Linear(in_features=49152, out_features=256, bias=True)
  (fc2): Linear(in_features=256, out_features=2, bias=True)
), GCARM(
  (carm1): CARMBlock()
  (carm2): CARMBlock()
  (conv1): Conv1d(64, 128, kernel_size=(5,), stride=(1,), padding=(2,))
  (bn1): BatchNorm1d(128, eps=1e-05, momentum=0.1, affine=True, track_running_stats=True)
  (pool1): MaxPool1d(kernel_size=2, stride=2, padding=0, dilation=1, ceil_mode=False)
  (conv2): Conv1d(128, 256, kernel_size=(5,), stride=(1,), padding=(2,))
  (bn2): BatchNorm1d(256, eps=1e-05, momentum=0.1, affine=True, track_running_stats=True)
  (pool2): MaxPool1d(kernel_size=2, stride=2, padding=0, dilation=1, ceil_mode=False)
  (conv3): Conv1d(256, 512, kernel_size=(3,), stride=(1,), padding=(1,))
  (bn3): BatchNorm1d(512, eps=1e-05, momentum=0.1, affine=True, track_running_stats=True)
  (pool3): MaxPool1d(kernel_size=2, stride=2, padding=0, dilation=1, ceil_mode=False)
  (dropout): Dropout(p=0.5, inplace=False)
  (fc1): Linear(in_features=49152, out_features=256, bias=True)
  (fc2): Linear(in_features=256, out_features=2, bias=True)
), GCARM(
  (carm1): CARMBlock()
  (carm2): CARMBlock()
  (conv1): Conv1d(64, 128, kernel_size=(5,), stride=(1,), padding=(2,))
  (bn1): BatchNorm1d(128, eps=1e-05, momentum=0.1, affine=True, track_running_stats=True)
  (pool1): MaxPool1d(kernel_size=2, stride=2, padding=0, dilation=1, ceil_mode=False)
  (conv2): Conv1d(128, 256, kernel_size=(5,), stride=(1,), padding=(2,))
  (bn2): BatchNorm1d(256, eps=1e-05, momentum=0.1, affine=True, track_running_stats=True)
  (pool2): MaxPool1d(kernel_size=2, stride=2, padding=0, dilation=1, ceil_mode=False)
  (conv3): Conv1d(256, 512, kernel_size=(3,), stride=(1,), padding=(1,))
  (bn3): BatchNorm1d(512, eps=1e-05, momentum=0.1, affine=True, track_running_stats=True)
  (pool3): MaxPool1d(kernel_size=2, stride=2, padding=0, dilation=1, ceil_mode=False)
  (dropout): Dropout(p=0.5, inplace=False)
  (fc1): Linear(in_features=49152, out_features=256, bias=True)
  (fc2): Linear(in_features=256, out_features=2, bias=True)
)]","[[0.49993086 0.49984404 0.49888542 ... 0.50155747 0.49950466 0.4991039 ]
 [0.5004259  0.4998614  0.5003084  ... 0.50245047 0.49964222 0.50002986]
 [0.4996252  0.49969578 0.5010688  ... 0.49935195 0.49883017 0.4990407 ]
 ...
 [0.49991274 0.50022787 0.49974522 ... 0.5003205  0.49809766 0.49993625]
 [0.50012374 0.5011181  0.49960387 ... 0.49918044 0.49768052 0.4999527 ]
…
