…
S001,252,64,0.8650793650793651,0.03124606299211039,0.820458553791887,0.02253634263839616,0.7619047619047619,0.11040022018447265,0.7859424647601988,0.06519827233625504,0.9147534013605442,0.03493646017716693,0.9166666666666666,0.016835875742536838,"['Fc5', 'Fc3', 'Fc1', 'Fcz', 'Fc2', 'Fc4', 'Fc6', 'C5', 'C3', 'C1', 'Cz', 'C2', 'C4', 'C6', 'Cp5', 'Cp3', 'Cp1', 'Cpz', 'Cp2', 'Cp4', 'Cp6', 'Fp1', 'Fpz', 'Fp2', 'Af7', 'Af3', 'Afz', 'Af4', 'Af8', 'F7', 'F5', 'F3', 'F1', 'Fz', 'F2', 'F4', 'F6', 'F8', 'Ft7', 'Ft8', 'T7', 'T8', 'T9', 'T10', 'Tp7', 'Tp8', 'P7', 'P5', 'P3', 'P1', 'Pz', 'P2', 'P4', 'P6', 'P8', 'Po7', 'Po3', 'Poz', 'Po4', 'Po8', 'O1', 'Oz', 'O2', 'Iz']","[ACSECNN(
  (channel_attention): Sequential(
    (0): Linear(in_features=769, out_features=128, bias=True)
    (1): ReLU()
    (2): Linear(in_features=128, out_features=1, bias=True)
    (3): Sigmoid()
  )
  (se1): SEBlock(
    (fc1): Linear(in_features=64, out_features=16, bias=True)
    (fc2): Linear(in_features=16, out_features=64, bias=True)
  )
  (se2): SEBlock(
    (fc1): Linear(in_features=128, out_features=32, bias=True)
    (fc2): Linear(in_features=32, out_features=128, bias=True)
  )
  (se3): SEBlock(
    (fc1): Linear(in_features=256, out_features=64, bias=True)
    (fc2): Linear(in_features=64, out_features=256, bias=True)
  )
  (conv1): Conv1d(64, 128, kernel_size=(5,), stride=(1,), padding=(2,))
  (bn1): BatchNorm1d(128, eps=1e-05, momentum=0.1, affine=True, track_running_stats=True)
  (pool1): MaxPool1d(kernel_size=2, stride=2, padding=0, dilation=1, ceil_mode=False)
  (conv2): Conv1d(128, 256, kernel_size=(5,), stride=(1,), padding=(2,))
  (bn2): BatchNorm1d(256, eps=1e-05, momentum=0.1, affine=True, track_running_stats=True)
  (pool2): MaxPool1d(kernel_size=2, stride=2, padding=0, dilation=1, ceil_mode=False)
  (conv3): Conv1d(256, 512, kernel_size=(3,), stride=(1,), padding=(1,))
  (bn3): BatchNorm1d(512, eps=1e-05, momentum=0.1, affine=True, track_running_stats=True)
  (pool3): MaxPool1d(kernel_size=2, stride=2, padding=0, dilation=1, ceil_mode=False)
  (dropout): Dropout(p=0.5, inplace=False)
  (fc1): Linear(in_features=49152, out_features=256, bias=True)
  (fc2): Linear(in_features=256, out_features=2, bias=True)
), ACSECNN(
  (channel_attention): Sequential(
    (0): Linear(in_features=769, out_features=128, bias=True)
    (1): ReLU()
    (2): Linear(in_features=128, out_features=1, bias=True)
    (3): Sigmoid()
  )
  (se1): SEBlock(
    (fc1): Linear(in_features=64, out_features=16, bias=True)
    (fc2): Linear(in_features=16, out_features=64, bias=True)
  )
  (se2): SEBlock(
    (fc1): Linear(in_features=128, out_features=32, bias=True)
    (fc2): Linear(in_features=32, out_features=128, bias=True)
  )
  (se3): SEBlock(
    (fc1): Linear(in_features=256, out_features=64, bias=True)
    (fc2): Linear(in_features=64, out_features=256, bias=True)
  )
  (conv1): Conv1d(64, 128, kernel_size=(5,), stride=(1,), padding=(2,))
  (bn1): BatchNorm1d(128, eps=1e-05, momentum=0.1, affine=True, track_running_stats=True)
  (pool1): MaxPool1d(kernel_size=2, stride=2, padding=0, dilation=1, ceil_mode=False)
  (conv2): Conv1d(128, 256, kernel_size=(5,), stride=(1,), padding=(2,))
  (bn2): BatchNorm1d(256, eps=1e-05, momentum=0.1, affine=True, track_running_stats=True)
  (pool2): MaxPool1d(kernel_size=2, stride=2, padding=0, dilation=1, ceil_mode=False)
  (conv3): Conv1d(256, 512, kernel_size=(3,), stride=(1,), padding=(1,))
  (bn3): BatchNorm1d(512, eps=1e-05, momentum=0.1, affine=True, track_running_stats=True)
  (pool3): MaxPool1d(kernel_size=2, stride=2, padding=0, dilation=1, ceil_mode=False)
  (dropout): Dropout(p=0.5, inplace=False)
  (fc1): Linear(in_features=49152, out_features=256, bias=True)
  (fc2): Linear(in_features=256, out_features=2, bias=True)
), ACSECNN(
  (channel_attention): Sequential(
    (0): Linear(in_features=769, out_features=128, bias=True)
    (1): ReLU()
    (2): Linear(in_features=128, out_features=1, bias=True)
    (3): Sigmoid()
  )
  (se1): SEBlock(
    (fc1): Linear(in_features=64, out_features=16, bias=True)
    (fc2): Linear(in_features=16, out_features=64, bias=True)
  )
  (se2): SEBlock(
    (fc1): Linear(in_features=128, out_features=32, bias=True)
    (fc2): Linear(in_features=32, out_features=128, bias=True)
  )
  (se3): SEBlock(
    (fc1): Linear(in_features=256, out_features=64, bias=True)
    (fc2): Linear(in_features=64, out_features=256, bias=True)
  )
  (conv1): Conv1d(64, 128, kernel_size=(5,), stride=(1,), padding=(2,))
  (bn1): BatchNorm1d(128, eps=1e-05, momentum=0.1, affine=True, track_running_stats=True)
  (pool1): MaxPool1d(kernel_size=2, stride=2, padding=0, dilation=1, ceil_mode=False)
  (conv2): Conv1d(128, 256, kernel_size=(5,), stride=(1,), padding=(2,))
  (bn2): BatchNorm1d(256, eps=1e-05, momentum=0.1, affine=True, track_running_stats=True)
  (pool2): MaxPool1d(kernel_size=2, stride=2, padding=0, dilation=1, ceil_mode=False)
  (conv3): Conv1d(256, 512, kernel_size=(3,), stride=(1,), padding=(1,))
  (bn3): BatchNorm1d(512, eps=1e-05, momentum=0.1, affine=True, track_running_stats=True)
  (pool3): MaxPool1d(kernel_size=2, stride=2, padding=0, dilation=1, ceil_mode=False)
  (dropout): Dropout(p=0.5, inplace=False)
  (fc1): Linear(in_features=49152, out_features=256, bias=True)
  (fc2): Linear(in_features=256, out_features=2, bias=True)
)]"
S002,252,64,0.6984126984126983,0.011223917161691244,0.576058201058201,0.03475842154357382,0.4523809523809524,0.27094777801764386,0.4565677478720957,0.1556393482319965,0.6772959183673469,0.06942065109073814,0.8214285714285715,0.1193448669985918,"['Fc5', 'Fc3', 'Fc1', 'Fcz', 'Fc2', 'Fc4', 'Fc6', 'C5', 'C3', 'C1', 'Cz', 'C2', 'C4', 'C6', 'Cp5', 'Cp3', 'Cp1', 'Cpz', 'Cp2', 'Cp4', 'Cp6', 'Fp1', 'Fpz', 'Fp2', 'Af7', 'Af3', 'Afz', 'Af4', 'Af8', 'F7', 'F5', 'F3', 'F1', 'Fz', 'F2', 'F4', 'F6', 'F8', 'Ft7', 'Ft8', 'T7', 'T8', 'T9', 'T10', 'Tp7', 'Tp8', 'P7', 'P5', 'P3', 'P1', 'Pz', 'P2', 'P4', 'P6', 'P8', 'Po7', 'Po3', 'Poz', 'Po4', 'Po8', 'O1', 'Oz', 'O2', 'Iz']","[ACSECNN(
  (channel_attention): Sequential(
    (0): Linear(in_features=769, out_features=128, bias=True)
    (1): ReLU()
    (2): Linear(in_features=128, out_features=1, bias=True)
    (3): Sigmoid()
  )
  (se1): SEBlock(
    (fc1): Linear(in_features=64, out_features=16, bias=True)
    (fc2): Linear(in_features=16, out_features=64, bias=True)
  )
  (se2): SEBlock(
    (fc1): Linear(in_features=128, out_features=32, bias=True)
    (fc2): Linear(in_features=32, out_features=128, bias=True)
  )
  (se3): SEBlock(
    (fc1): Linear(in_features=256, out_features=64, bias=True)
    (fc2): Linear(in_features=64, out_features=256, bias=True)
  )
  (conv1): Conv1d(64, 128, kernel_size=(5,), stride=(1,), padding=(2,))
  (bn1): BatchNorm1d(128, eps=1e-05, momentum=0.1, affine=True, track_running_stats=True)
  (pool1): MaxPool1d(kernel_size=2, stride=2, padding=0, dilation=1, ceil_mode=False)
  (conv2): Conv1d(128, 256, kernel_size=(5,), stride=(1,), padding=(2,))
  (bn2): BatchNorm1d(256, eps=1e-05, momentum=0.1, affine=True, track_running_stats=True)
  (pool2): MaxPool1d(kernel_size=2, stride=2, padding=0, dilation=1, ceil_mode=False)
  (conv3): Conv1d(256, 512, kernel_size=(3,), stride=(1,), padding=(1,))
  (bn3): BatchNorm1d(512, eps=1e-05, momentum=0.1, affine=True, track_running_stats=True)
  (pool3): MaxPool1d(kernel_size=2, stride=2, padding=0, dilation=1, ceil_mode=False)
  (dropout): Dropout(p=0.5, inplace=False)
  (fc1): Linear(in_features=49152, out_features=256, bias=True)
  (fc2): Linear(in_features=256, out_features=2, bias=True)
), ACSECNN(
  (channel_attention): Sequential(
    (0): Linear(in_features=769, out_features=128, bias=True)
    (1): ReLU()
    (2): Linear(in_features=128, out_features=1, bias=True)
    (3): Sigmoid()
  )
  (se1): SEBlock(
    (fc1): Linear(in_features=64, out_features=16, bias=True)
    (fc2): Linear(in_features=16, out_features=64, bias=True)
  )
  (se2): SEBlock(
    (fc1): Linear(in_features=128, out_features=32, bias=True)
    (fc2): Linear(in_features=32, out_features=128, bias=True)
  )
  (se3): SEBlock(
    (fc1): Linear(in_features=256, out_features=64, bias=True)
    (fc2): Linear(in_features=64, out_features=256, bias=True)
  )
  (conv1): Conv1d(64, 128, kernel_size=(5,), stride=(1,), padding=(2,))
  (bn1): BatchNorm1d(128, eps=1e-05, momentum=0.1, affine=True, track_running_stats=True)
  (pool1): MaxPool1d(kernel_size=2, stride=2, padding=0, dilation=1, ceil_mode=False)
  (conv2): Conv1d(128, 256, kernel_size=(5,), stride=(1,), padding=(2,))
  (bn2): BatchNorm1d(256, eps=1e-05, momentum=0.1, affine=True, track_running_stats=True)
  (pool2): MaxPool1d(kernel_size=2, stride=2, padding=0, dilation=1, ceil_mode=False)
  (conv3): Conv1d(256, 512, kernel_size=(3,), stride=(1,), padding=(1,))
  (bn3): BatchNorm1d(512, eps=1e-05, momentum=0.1, affine=True, track_running_stats=True)
  (pool3): MaxPool1d(kernel_size=2, stride=2, padding=0, dilation=1, ceil_mode=False)
  (dropout): Dropout(p=0.5, inplace=False)
  (fc1): Linear(in_features=49152, out_features=256, bias=True)
  (fc2): Linear(in_features=256, out_features=2, bias=True)
), ACSECNN(
  (channel_attention): Sequential(
    (0): Linear(in_features=769, out_features=128, bias=True)
    (1): ReLU()
    (2): Linear(in_features=128, out_features=1, bias=True)
    (3): Sigmoid()
  )
  (se1): SEBlock(
    (fc1): Linear(in_features=64, out_features=16, bias=True)
    (fc2): Linear(in_features=16, out_features=64, bias=True)
  )
  (se2): SEBlock(
    (fc1): Linear(in_features=128, out_features=32, bias=True)
    (fc2): Linear(in_features=32, out_features=128, bias=True)
  )
  (se3): SEBlock(
    (fc1): Linear(in_features=256, out_features=64, bias=True)
    (fc2): Linear(in_features=64, out_features=256, bias=True)
  )
  (conv1): Conv1d(64, 128, kernel_size=(5,), stride=(1,), padding=(2,))
  (bn1): BatchNorm1d(128, eps=1e-05, momentum=0.1, affine=True, track_running_stats=True)
  (pool1): MaxPool1d(kernel_size=2, stride=2, padding=0, dilation=1, ceil_mode=False)
  (conv2): Conv1d(128, 256, kernel_size=(5,), stride=(1,), padding=(2,))
  (bn2): BatchNorm1d(256, eps=1e-05, momentum=0.1, affine=True, track_running_stats=True)
  (pool2): MaxPool1d(kernel_size=2, stride=2, padding=0, dilation=1, ceil_mode=False)
  (conv3): Conv1d(256, 512, kernel_size=(3,), stride=(1,), padding=(1,))
  (bn3): BatchNorm1d(512, eps=1e-05, momentum=0.1, affine=True, track_running_stats=True)
  (pool3): MaxPool1d(kernel_size=2, stride=2, padding=0, dilation=1, ceil_mode=False)
  (dropout): Dropout(p=0.5, inplace=False)
  (fc1): Linear(in_features=49152, out_features=256, bias=True)
  (fc2): Linear(in_features=256, out_features=2, bias=True)
)]"
S005,252,64,0.7976190476190476,0.025717224993681995,0.7167460317460318,0.05298009913646772,0.6547619047619048,0.03367175148507373,0.6836166977676411,0.03661437684345618,0.8465136054421768,0.0013104621604950839,0.8690476190476191,0.030351306628528474,"['Fc5', 'Fc3', 'Fc1', 'Fcz', 'Fc2', 'Fc4', 'Fc6', 'C5', 'C3', 'C1', 'Cz', 'C2', 'C4', 'C6', 'Cp5', 'Cp3', 'Cp1', 'Cpz', 'Cp2', 'Cp4', 'Cp6', 'Fp1', 'Fpz', 'Fp2', 'Af7', 'Af3', 'Afz', 'Af4', 'Af8', 'F7', 'F5', 'F3', 'F1', 'Fz', 'F2', 'F4', 'F6', 'F8', 'Ft7', 'Ft8', 'T7', 'T8', 'T9', 'T10', 'Tp7', 'Tp8', 'P7', 'P5', 'P3', 'P1', 'Pz', 'P2', 'P4', 'P6', 'P8', 'Po7', 'Po3', 'Poz', 'Po4', 'Po8', 'O1', 'Oz', 'O2', 'Iz']","[ACSECNN(
  (channel_attention): Sequential(
    (0): Linear(in_features=769, out_features=128, bias=True)
    (1): ReLU()
    (2): Linear(in_features=128, out_features=1, bias=True)
    (3): Sigmoid()
  )
  (se1): SEBlock(
    (fc1): Linear(in_features=64, out_features=16, bias=True)
    (fc2): Linear(in_features=16, out_features=64, bias=True)
  )
  (se2): SEBlock(
    (fc1): Linear(in_features=128, out_features=32, bias=True)
    (fc2): Linear(in_features=32, out_features=128, bias=True)
  )
  (se3): SEBlock(
    (fc1): Linear(in_features=256, out_features=64, bias=True)
    (fc2): Linear(in_features=64, out_features=256, bias=True)
  )
  (conv1): Conv1d(64, 128, kernel_size=(5,), stride=(1,), padding=(2,))
  (bn1): BatchNorm1d(128, eps=1e-05, momentum=0.1, affine=True, track_running_stats=True)
  (pool1): MaxPool1d(kernel_size=2, stride=2, padding=0, dilation=1, ceil_mode=False)
  (conv2): Conv1d(128, 256, kernel_size=(5,), stride=(1,), padding=(2,))
  (bn2): BatchNorm1d(256, eps=1e-05, momentum=0.1, affine=True, track_running_stats=True)
  (pool2): MaxPool1d(kernel_size=2, stride=2, padding=0, dilation=1, ceil_mode=False)
  (conv3): Conv1d(256, 512, kernel_size=(3,), stride=(1,), padding=(1,))
  (bn3): BatchNorm1d(512, eps=1e-05, momentum=0.1, affine=True, track_running_stats=True)
  (pool3): MaxPool1d(kernel_size=2, stride=2, padding=0, dilation=1, ceil_mode=False)
  (dropout): Dropout(p=0.5, inplace=False)
  (fc1): Linear(in_features=49152, out_features=256, bias=True)
  (fc2): Linear(in_features=256, out_features=2, bias=True)
), ACSECNN(
  (channel_attention): Sequential(
    (0): Linear(in_features=769, out_features=128, bias=True)
    (1): ReLU()
    (2): Linear(in_features=128, out_features=1, bias=True)
    (3): Sigmoid()
  )
  (se1): SEBlock(
    (fc1): Linear(in_features=64, out_features=16, bias=True)
    (fc2): Linear(in_features=16, out_features=64, bias=True)
  )
  (se2): SEBlock(
    (fc1): Linear(in_features=128, out_features=32, bias=True)
    (fc2): Linear(in_features=32, out_features=128, bias=True)
  )
  (se3): SEBlock(
    (fc1): Linear(in_features=256, out_features=64, bias=True)
    (fc2): Linear(in_features=64, out_features=256, bias=True)
  )
  (conv1): Conv1d(64, 128, kernel_size=(5,), stride=(1,), padding=(2,))
  (bn1): BatchNorm1d(128, eps=1e-05, momentum=0.1, affine=True, track_running_stats=True)
  (pool1): MaxPool1d(kernel_size=2, stride=2, padding=0, dilation=1, ceil_mode=False)
  (conv2): Conv1d(128, 256, kernel_size=(5,), stride=(1,), padding=(2,))
  (bn2): BatchNorm1d(256, eps=1e-05, momentum=0.1, affine=True, track_running_stats=True)
  (pool2): MaxPool1d(kernel_size=2, stride=2, padding=0, dilation=1, ceil_mode=False)
  (conv3): Conv1d(256, 512, kernel_size=(3,), stride=(1,), padding=(1,))
  (bn3): BatchNorm1d(512, eps=1e-05, momentum=0.1, affine=True, track_running_stats=True)
  (pool3): MaxPool1d(kernel_size=2, stride=2, padding=0, dilation=1, ceil_mode=False)
  (dropout): Dropout(p=0.5, inplace=False)
  (fc1): Linear(in_features=49152, out_features=256, bias=True)
  (fc2): Linear(in_features=256, out_features=2, bias=True)
), ACSECNN(
  (channel_attention): Sequential(
    (0): Linear(in_features=769, out_features=128, bias=True)
    (1): ReLU()
    (2): Linear(in_features=128, out_features=1, bias=True)
    (3): Sigmoid()
  )
  (se1): SEBlock(
    (fc1): Linear(in_features=64, out_features=16, bias=True)
    (fc2): Linear(in_features=16, out_features=64, bias=True)
  )
  (se2): SEBlock(
    (fc1): Linear(in_features=128, out_features=32, bias=True)
    (fc2): Linear(in_features=32, out_features=128, bias=True)
  )
  (se3): SEBlock(
    (fc1): Linear(in_features=256, out_features=64, bias=True)
    (fc2): Linear(in_features=64, out_features=256, bias=True)
  )
  (conv1): Conv1d(64, 128, kernel_size=(5,), stride=(1,), padding=(2,))
  (bn1): BatchNorm1d(128, eps=1e-05, momentum=0.1, affine=True, track_running_stats=True)
  (pool1): MaxPool1d(kernel_size=2, stride=2, padding=0, dilation=1, ceil_mode=False)
  (conv2): Conv1d(128, 256, kernel_size=(5,), stride=(1,), padding=(2,))
  (bn2): BatchNorm1d(256, eps=1e-05, momentum=0.1, affine=True, track_running_stats=True)
  (pool2): MaxPool1d(kernel_size=2, stride=2, padding=0, dilation=1, ceil_mode=False)
  (conv3): Conv1d(256, 512, kernel_size=(3,), stride=(1,), padding=(1,))
  (bn3): BatchNorm1d(512, eps=1e-05, momentum=0.1, affine=True, track_running_stats=True)
  (pool3): MaxPool1d(kernel_size=2, stride=2, padding=0, dilation=1, ceil_mode=False)
  (dropout): Dropout(p=0.5, inplace=False)
  (fc1): Linear(in_features=49152, out_features=256, bias=True)
  (fc2): Linear(in_features=256, out_features=2, bias=True)
)]"
S006,252,64,0.7380952380952381,0.019440394783993453,0.7657407407407407,0.07778879992447492,0.32142857142857145,0.10101525445522108,0.44084244427493857,0.08834243475133301,0.7459608843537414,0.02521262088306635,0.9464285714285713,0.0291605921759902,"['Fc5', 'Fc3', 'Fc1', 'Fcz', 'Fc2', 'Fc4', 'Fc6', 'C5', 'C3', 'C1', 'Cz', 'C2', 'C4', 'C6', 'Cp5', 'Cp3', 'Cp1', 'Cpz', 'Cp2', 'Cp4', 'Cp6', 'Fp1', 'Fpz', 'Fp2', 'Af7', 'Af3', 'Afz', 'Af4', 'Af8', 'F7', 'F5', 'F3', 'F1', 'Fz', 'F2', 'F4', 'F6', 'F8', 'Ft7', 'Ft8', 'T7', 'T8', 'T9', 'T10', 'Tp7', 'Tp8', 'P7', 'P5', 'P3', 'P1', 'Pz', 'P2', 'P4', 'P6', 'P8', 'Po7', 'Po3', 'Poz', 'Po4', 'Po8', 'O1', 'Oz', 'O2', 'Iz']","[ACSECNN(
  (channel_attention): Sequential(
    (0): Linear(in_features=769, out_features=128, bias=True)
    (1): ReLU()
    (2): Linear(in_features=128, out_features=1, bias=True)
    (3): Sigmoid()
  )
  (se1): SEBlock(
    (fc1): Linear(in_features=64, out_features=16, bias=True)
    (fc2): Linear(in_features=16, out_features=64, bias=True)
  )
  (se2): SEBlock(
    (fc1): Linear(in_features=128, out_features=32, bias=True)
    (fc2): Linear(in_features=32, out_features=128, bias=True)
  )
  (se3): SEBlock(
    (fc1): Linear(in_features=256, out_features=64, bias=True)
    (fc2): Linear(in_features=64, out_features=256, bias=True)
  )
  (conv1): Conv1d(64, 128, kernel_size=(5,), stride=(1,), padding=(2,))
  (bn1): BatchNorm1d(128, eps=1e-05, momentum=0.1, affine=True, track_running_stats=True)
  (pool1): MaxPool1d(kernel_size=2, stride=2, padding=0, dilation=1, ceil_mode=False)
  (conv2): Conv1d(128, 256, kernel_size=(5,), stride=(1,), padding=(2,))
  (bn2): BatchNorm1d(256, eps=1e-05, momentum=0.1, affine=True, track_running_stats=True)
  (pool2): MaxPool1d(kernel_size=2, stride=2, padding=0, dilation=1, ceil_mode=False)
  (conv3): Conv1d(256, 512, kernel_size=(3,), stride=(1,), padding=(1,))
  (bn3): BatchNorm1d(512, eps=1e-05, momentum=0.1, affine=True, track_running_stats=True)
  (pool3): MaxPool1d(kernel_size=2, stride=2, padding=0, dilation=1, ceil_mode=False)
  (dropout): Dropout(p=0.5, inplace=False)
  (fc1): Linear(in_features=49152, out_features=256, bias=True)
  (fc2): Linear(in_features=256, out_features=2, bias=True)
), ACSECNN(
  (channel_attention): Sequential(
    (0): Linear(in_features=769, out_features=128, bias=True)
    (1): ReLU()
    (2): Linear(in_features=128, out_features=1, bias=True)
    (3): Sigmoid()
  )
  (se1): SEBlock(
    (fc1): Linear(in_features=64, out_features=16, bias=True)
    (fc2): Linear(in_features=16, out_features=64, bias=True)
  )
  (se2): SEBlock(
    (fc1): Linear(in_features=128, out_features=32, bias=True)
    (fc2): Linear(in_features=32, out_features=128, bias=True)
  )
  (se3): SEBlock(
    (fc1): Linear(in_features=256, out_features=64, bias=True)
    (fc2): Linear(in_features=64, out_features=256, bias=True)
  )
  (conv1): Conv1d(64, 128, kernel_size=(5,), stride=(1,), padding=(2,))
  (bn1): BatchNorm1d(128, eps=1e-05, momentum=0.1, affine=True, track_running_stats=True)
  (pool1): MaxPool1d(kernel_size=2, stride=2, padding=0, dilation=1, ceil_mode=False)
  (conv2): Conv1d(128, 256, kernel_size=(5,), stride=(1,), padding=(2,))
  (bn2): BatchNorm1d(256, eps=1e-05, momentum=0.1, affine=True, track_running_stats=True)
  (pool2): MaxPool1d(kernel_size=2, stride=2, padding=0, dilation=1, ceil_mode=False)
  (conv3): Conv1d(256, 512, kernel_size=(3,), stride=(1,), padding=(1,))
  (bn3): BatchNorm1d(512, eps=1e-05, momentum=0.1, affine=True, track_running_stats=True)
  (pool3): MaxPool1d(kernel_size=2, stride=2, padding=0, dilation=1, ceil_mode=False)
  (dropout): Dropout(p=0.5, inplace=False)
  (fc1): Linear(in_features=49152, out_features=256, bias=True)
  (fc2): Linear(in_features=256, out_features=2, bias=True)
), ACSECNN(
  (channel_attention): Sequential(
    (0): Linear(in_features=769, out_features=128, bias=True)
    (1): ReLU()
    (2): Linear(in_features=128, out_features=1, bias=True)
    (3): Sigmoid()
  )
  (se1): SEBlock(
    (fc1): Linear(in_features=64, out_features=16, bias=True)
    (fc2): Linear(in_features=16, out_features=64, bias=True)
  )
  (se2): SEBlock(
    (fc1): Linear(in_features=128, out_features=32, bias=True)
    (fc2): Linear(in_features=32, out_features=128, bias=True)
  )
  (se3): SEBlock(
    (fc1): Linear(in_features=256, out_features=64, bias=True)
    (fc2): Linear(in_features=64, out_features=256, bias=True)
  )
  (conv1): Conv1d(64, 128, kernel_size=(5,), stride=(1,), padding=(2,))
  (bn1): BatchNorm1d(128, eps=1e-05, momentum=0.1, affine=True, track_running_stats=True)
  (pool1): MaxPool1d(kernel_size=2, stride=2, padding=0, dilation=1, ceil_mode=False)
  (conv2): Conv1d(128, 256, kernel_size=(5,), stride=(1,), padding=(2,))
  (bn2): BatchNorm1d(256, eps=1e-05, momentum=0.1, affine=True, track_running_stats=True)
  (pool2): MaxPool1d(kernel_size=2, stride=2, padding=0, dilation=1, ceil_mode=False)
  (conv3): Conv1d(256, 512, kernel_size=(3,), stride=(1,), padding=(1,))
  (bn3): BatchNorm1d(512, eps=1e-05, momentum=0.1, affine=True, track_running_stats=True)
  (pool3): MaxPool1d(kernel_size=2, stride=2, padding=0, dilation=1, ceil_mode=False)
  (dropout): Dropout(p=0.5, inplace=False)
  (fc1): Linear(in_features=49152, out_features=256, bias=True)
  (fc2): Linear(in_features=256, out_features=2, bias=True)
)]"
S007,252,64,0.8968253968253969,0.031246062992110354,0.8898550724637682,0.0829005776584063,0.7976190476190476,0.060702613257056934,0.8379535722334911,0.04858545262715941,0.9147534013605442,0.01574564981899759,0.9464285714285715,0.0437408882639853,"['Fc5', 'Fc3', 'Fc1', 'Fcz', 'Fc2', 'Fc4', 'Fc6', 'C5', 'C3', 'C1', 'Cz', 'C2', 'C4', 'C6', 'Cp5', 'Cp3', 'Cp1', 'Cpz', 'Cp2', 'Cp4', 'Cp6', 'Fp1', 'Fpz', 'Fp2', 'Af7', 'Af3', 'Afz', 'Af4', 'Af8', 'F7', 'F5', 'F3', 'F1', 'Fz', 'F2', 'F4', 'F6', 'F8', 'Ft7', 'Ft8', 'T7', 'T8', 'T9', 'T10', 'Tp7', 'Tp8', 'P7', 'P5', 'P3', 'P1', 'Pz', 'P2', 'P4', 'P6', 'P8', 'Po7', 'Po3', 'Poz', 'Po4', 'Po8', 'O1', 'Oz', 'O2', 'Iz']","[ACSECNN(
  (channel_attention): Sequential(
    (0): Linear(in_features=769, out_features=128, bias=True)
    (1): ReLU()
    (2): Linear(in_features=128, out_features=1, bias=True)
    (3): Sigmoid()
  )
  (se1): SEBlock(
    (fc1): Linear(in_features=64, out_features=16, bias=True)
    (fc2): Linear(in_features=16, out_features=64, bias=True)
  )
  (se2): SEBlock(
    (fc1): Linear(in_features=128, out_features=32, bias=True)
    (fc2): Linear(in_features=32, out_features=128, bias=True)
  )
  (se3): SEBlock(
    (fc1): Linear(in_features=256, out_features=64, bias=True)
    (fc2): Linear(in_features=64, out_features=256, bias=True)
  )
  (conv1): Conv1d(64, 128, kernel_size=(5,), stride=(1,), padding=(2,))
  (bn1): BatchNorm1d(128, eps=1e-05, momentum=0.1, affine=True, track_running_stats=True)
  (pool1): MaxPool1d(kernel_size=2, stride=2, padding=0, dilation=1, ceil_mode=False)
  (conv2): Conv1d(128, 256, kernel_size=(5,), stride=(1,), padding=(2,))
  (bn2): BatchNorm1d(256, eps=1e-05, momentum=0.1, affine=True, track_running_stats=True)
  (pool2): MaxPool1d(kernel_size=2, stride=2, padding=0, dilation=1, ceil_mode=False)
  (conv3): Conv1d(256, 512, kernel_size=(3,), stride=(1,), padding=(1,))
  (bn3): BatchNorm1d(512, eps=1e-05, momentum=0.1, affine=True, track_running_stats=True)
  (pool3): MaxPool1d(kernel_size=2, stride=2, padding=0, dilation=1, ceil_mode=False)
  (dropout): Dropout(p=0.5, inplace=False)
  (fc1): Linear(in_features=49152, out_features=256, bias=True)
  (fc2): Linear(in_features=256, out_features=2, bias=True)
), ACSECNN(
  (channel_attention): Sequential(
    (0): Linear(in_features=769, out_features=128, bias=True)
    (1): ReLU()
    (2): Linear(in_features=128, out_features=1, bias=True)
    (3): Sigmoid()
  )
  (se1): SEBlock(
    (fc1): Linear(in_features=64, out_features=16, bias=True)
    (fc2): Linear(in_features=16, out_features=64, bias=True)
  )
  (se2): SEBlock(
    (fc1): Linear(in_features=128, out_features=32, bias=True)
    (fc2): Linear(in_features=32, out_features=128, bias=True)
  )
  (se3): SEBlock(
    (fc1): Linear(in_features=256, out_features=64, bias=True)
    (fc2): Linear(in_features=64, out_features=256, bias=True)
  )
  (conv1): Conv1d(64, 128, kernel_size=(5,), stride=(1,), padding=(2,))
  (bn1): BatchNorm1d(128, eps=1e-05, momentum=0.1, affine=True, track_running_stats=True)
  (pool1): MaxPool1d(kernel_size=2, stride=2, padding=0, dilation=1, ceil_mode=False)
  (conv2): Conv1d(128, 256, kernel_size=(5,), stride=(1,), padding=(2,))
  (bn2): BatchNorm1d(256, eps=1e-05, momentum=0.1, affine=True, track_running_stats=True)
  (pool2): MaxPool1d(kernel_size=2, stride=2, padding=0, dilation=1, ceil_mode=False)
  (conv3): Conv1d(256, 512, kernel_size=(3,), stride=(1,), padding=(1,))
  (bn3): BatchNorm1d(512, eps=1e-05, momentum=0.1, affine=True, track_running_stats=True)
  (pool3): MaxPool1d(kernel_size=2, stride=2, padding=0, dilation=1, ceil_mode=False)
  (dropout): Dropout(p=0.5, inplace=False)
  (fc1): Linear(in_features=49152, out_features=256, bias=True)
  (fc2): Linear(in_features=256, out_features=2, bias=True)
), ACSECNN(
  (channel_attention): Sequential(
    (0): Linear(in_features=769, out_features=128, bias=True)
    (1): ReLU()
    (2): Linear(in_features=128, out_features=1, bias=True)
    (3): Sigmoid()
  )
  (se1): SEBlock(
    (fc1): Linear(in_features=64, out_features=16, bias=True)
    (fc2): Linear(in_features=16, out_features=64, bias=True)
  )
  (se2): SEBlock(
    (fc1): Linear(in_features=128, out_features=32, bias=True)
    (fc2): Linear(in_features=32, out_features=128, bias=True)
  )
  (se3): SEBlock(
    (fc1): Linear(in_features=256, out_features=64, bias=True)
    (fc2): Linear(in_features=64, out_features=256, bias=True)
  )
  (conv1): Conv1d(64, 128, kernel_size=(5,), stride=(1,), padding=(2,))
  (bn1): BatchNorm1d(128, eps=1e-05, momentum=0.1, affine=True, track_running_stats=True)
  (pool1): MaxPool1d(kernel_size=2, stride=2, padding=0, dilation=1, ceil_mode=False)
  (conv2): Conv1d(128, 256, kernel_size=(5,), stride=(1,), padding=(2,))
  (bn2): BatchNorm1d(256, eps=1e-05, momentum=0.1, affine=True, track_running_stats=True)
  (pool2): MaxPool1d(kernel_size=2, stride=2, padding=0, dilation=1, ceil_mode=False)
  (conv3): Conv1d(256, 512, kernel_size=(3,), stride=(1,), padding=(1,))
  (bn3): BatchNorm1d(512, eps=1e-05, momentum=0.1, affine=True, track_running_stats=True)
  (pool3): MaxPool1d(kernel_size=2, stride=2, padding=0, dilation=1, ceil_mode=False)
  (dropout): Dropout(p=0.5, inplace=False)
  (fc1): Linear(in_features=49152, out_features=256, bias=True)
  (fc2): Linear(in_features=256, out_features=2, bias=True)
)]"
S008,252,64,0.8928571428571429,0.0350466701044756,0.8282703886152162,0.054918614931400926,0.8571428571428572,0.05050762722761057,0.8422853109785958,0.0513121091473746,0.9375,0.027391315590719,0.9107142857142856,0.0291605921759902,"['Fc5', 'Fc3', 'Fc1', 'Fcz', 'Fc2', 'Fc4', 'Fc6', 'C5', 'C3', 'C1', 'Cz', 'C2', 'C4', 'C6', 'Cp5', 'Cp3', 'Cp1', 'Cpz', 'Cp2', 'Cp4', 'Cp6', 'Fp1', 'Fpz', 'Fp2', 'Af7', 'Af3', 'Afz', 'Af4', 'Af8', 'F7', 'F5', 'F3', 'F1', 'Fz', 'F2', 'F4', 'F6', 'F8', 'Ft7', 'Ft8', 'T7', 'T8', 'T9', 'T10', 'Tp7', 'Tp8', 'P7', 'P5', 'P3', 'P1', 'Pz', 'P2', 'P4', 'P6', 'P8', 'Po7', 'Po3', 'Poz', 'Po4', 'Po8', 'O1', 'Oz', 'O2', 'Iz']","[ACSECNN(
  (channel_attention): Sequential(
    (0): Linear(in_features=769, out_features=128, bias=True)
    (1): ReLU()
    (2): Linear(in_features=128, out_features=1, bias=True)
    (3): Sigmoid()
  )
  (se1): SEBlock(
    (fc1): Linear(in_features=64, out_features=16, bias=True)
    (fc2): Linear(in_features=16, out_features=64, bias=True)
  )
  (se2): SEBlock(
    (fc1): Linear(in_features=128, out_features=32, bias=True)
    (fc2): Linear(in_features=32, out_features=128, bias=True)
  )
  (se3): SEBlock(
    (fc1): Linear(in_features=256, out_features=64, bias=True)
    (fc2): Linear(in_features=64, out_features=256, bias=True)
  )
  (conv1): Conv1d(64, 128, kernel_size=(5,), stride=(1,), padding=(2,))
  (bn1): BatchNorm1d(128, eps=1e-05, momentum=0.1, affine=True, track_running_stats=True)
  (pool1): MaxPool1d(kernel_size=2, stride=2, padding=0, dilation=1, ceil_mode=False)
  (conv2): Conv1d(128, 256, kernel_size=(5,), stride=(1,), padding=(2,))
  (bn2): BatchNorm1d(256, eps=1e-05, momentum=0.1, affine=True, track_running_stats=True)
  (pool2): MaxPool1d(kernel_size=2, stride=2, padding=0, dilation=1, ceil_mode=False)
  (conv3): Conv1d(256, 512, kernel_size=(3,), stride=(1,), padding=(1,))
  (bn3): BatchNorm1d(512, eps=1e-05, momentum=0.1, affine=True, track_running_stats=True)
  (pool3): MaxPool1d(kernel_size=2, stride=2, padding=0, dilation=1, ceil_mode=False)
  (dropout): Dropout(p=0.5, inplace=False)
  (fc1): Linear(in_features=49152, out_features=256, bias=True)
  (fc2): Linear(in_features=256, out_features=2, bias=True)
), ACSECNN(
  (channel_attention): Sequential(
    (0): Linear(in_features=769, out_features=128, bias=True)
    (1): ReLU()
    (2): Linear(in_features=128, out_features=1, bias=True)
    (3): Sigmoid()
  )
  (se1): SEBlock(
    (fc1): Linear(in_features=64, out_features=16, bias=True)
    (fc2): Linear(in_features=16, out_features=64, bias=True)
  )
  (se2): SEBlock(
    (fc1): Linear(in_features=128, out_features=32, bias=True)
    (fc2): Linear(in_features=32, out_features=128, bias=True)
  )
  (se3): SEBlock(
    (fc1): Linear(in_features=256, out_features=64, bias=True)
    (fc2): Linear(in_features=64, out_features=256, bias=True)
  )
  (conv1): Conv1d(64, 128, kernel_size=(5,), stride=(1,), padding=(2,))
  (bn1): BatchNorm1d(128, eps=1e-05, momentum=0.1, affine=True, track_running_stats=True)
  (pool1): MaxPool1d(kernel_size=2, stride=2, padding=0, dilation=1, ceil_mode=False)
  (conv2): Conv1d(128, 256, kernel_size=(5,), stride=(1,), padding=(2,))
  (bn2): BatchNorm1d(256, eps=1e-05, momentum=0.1, affine=True, track_running_stats=True)
  (pool2): MaxPool1d(kernel_size=2, stride=2, padding=0, dilation=1, ceil_mode=False)
  (conv3): Conv1d(256, 512, kernel_size=(3,), stride=(1,), padding=(1,))
  (bn3): BatchNorm1d(512, eps=1e-05, momentum=0.1, affine=True, track_running_stats=True)
  (pool3): MaxPool1d(kernel_size=2, stride=2, padding=0, dilation=1, ceil_mode=False)
  (dropout): Dropout(p=0.5, inplace=False)
  (fc1): Linear(in_features=49152, out_features=256, bias=True)
  (fc2): Linear(in_features=256, out_features=2, bias=True)
), ACSECNN(
  (channel_attention): Sequential(
    (0): Linear(in_features=769, out_features=128, bias=True)
    (1): ReLU()
    (2): Linear(in_features=128, out_features=1, bias=True)
    (3): Sigmoid()
  )
  (se1): SEBlock(
    (fc1): Linear(in_features=64, out_features=16, bias=True)
    (fc2): Linear(in_features=16, out_features=64, bias=True)
  )
  (se2): SEBlock(
    (fc1): Linear(in_features=128, out_features=32, bias=True)
    (fc2): Linear(in_features=32, out_features=128, bias=True)
  )
  (se3): SEBlock(
    (fc1): Linear(in_features=256, out_features=64, bias=True)
    (fc2): Linear(in_features=64, out_features=256, bias=True)
  )
  (conv1): Conv1d(64, 128, kernel_size=(5,), stride=(1,), padding=(2,))
  (bn1): BatchNorm1d(128, eps=1e-05, momentum=0.1, affine=True, track_running_stats=True)
  (pool1): MaxPool1d(kernel_size=2, stride=2, padding=0, dilation=1, ceil_mode=False)
  (conv2): Conv1d(128, 256, kernel_size=(5,), stride=(1,), padding=(2,))
  (bn2): BatchNorm1d(256, eps=1e-05, momentum=0.1, affine=True, track_running_stats=True)
  (pool2): MaxPool1d(kernel_size=2, stride=2, padding=0, dilation=1, ceil_mode=False)
  (conv3): Conv1d(256, 512, kernel_size=(3,), stride=(1,), padding=(1,))
  (bn3): BatchNorm1d(512, eps=1e-05, momentum=0.1, affine=True, track_running_stats=True)
  (pool3): MaxPool1d(kernel_size=2, stride=2, padding=0, dilation=1, ceil_mode=False)
  (dropout): Dropout(p=0.5, inplace=False)
  (fc1): Linear(in_features=49152, out_features=256, bias=True)
  (fc2): Linear(in_features=256, out_features=2, bias=True)
)]"
S011,252,64,0.8333333333333334,0.025717224993681995,0.8107017543859648,0.04293122618321465,0.6547619047619048,0.07338588098772592,0.7218705287753863,0.05012790000666889,0.8590561224489797,0.043414215370197705,0.9226190476190478,0.022271770159368667,"['Fc5', 'Fc3', 'Fc1', 'Fcz', 'Fc2', 'Fc4', 'Fc6', 'C5', 'C3', 'C1', 'Cz', 'C2', 'C4', 'C6', 'Cp5', 'Cp3', 'Cp1', 'Cpz', 'Cp2', 'Cp4', 'Cp6', 'Fp1', 'Fpz', 'Fp2', 'Af7', 'Af3', 'Afz', 'Af4', 'Af8', 'F7', 'F5', 'F3', 'F1', 'Fz', 'F2', 'F4', 'F6', 'F8', 'Ft7', 'Ft8', 'T7', 'T8', 'T9', 'T10', 'Tp7', 'Tp8', 'P7', 'P5', 'P3', 'P1', 'Pz', 'P2', 'P4', 'P6', 'P8', 'Po7', 'Po3', 'Poz', 'Po4', 'Po8', 'O1', 'Oz', 'O2', 'Iz']","[ACSECNN(
  (channel_attention): Sequential(
    (0): Linear(in_features=769, out_features=128, bias=True)
    (1): ReLU()
    (2): Linear(in_features=128, out_features=1, bias=True)
    (3): Sigmoid()
  )
  (se1): SEBlock(
    (fc1): Linear(in_features=64, out_features=16, bias=True)
    (fc2): Linear(in_features=16, out_features=64, bias=True)
  )
  (se2): SEBlock(
    (fc1): Linear(in_features=128, out_features=32, bias=True)
    (fc2): Linear(in_features=32, out_features=128, bias=True)
  )
  (se3): SEBlock(
    (fc1): Linear(in_features=256, out_features=64, bias=True)
    (fc2): Linear(in_features=64, out_features=256, bias=True)
  )
  (conv1): Conv1d(64, 128, kernel_size=(5,), stride=(1,), padding=(2,))
  (bn1): BatchNorm1d(128, eps=1e-05, momentum=0.1, affine=True, track_running_stats=True)
  (pool1): MaxPool1d(kernel_size=2, stride=2, padding=0, dilation=1, ceil_mode=False)
  (conv2): Conv1d(128, 256, kernel_size=(5,), stride=(1,), padding=(2,))
  (bn2): BatchNorm1d(256, eps=1e-05, momentum=0.1, affine=True, track_running_stats=True)
  (pool2): MaxPool1d(kernel_size=2, stride=2, padding=0, dilation=1, ceil_mode=False)
  (conv3): Conv1d(256, 512, kernel_size=(3,), stride=(1,), padding=(1,))
  (bn3): BatchNorm1d(512, eps=1e-05, momentum=0.1, affine=True, track_running_stats=True)
  (pool3): MaxPool1d(kernel_size=2, stride=2, padding=0, dilation=1, ceil_mode=False)
  (dropout): Dropout(p=0.5, inplace=False)
  (fc1): Linear(in_features=49152, out_features=256, bias=True)
  (fc2): Linear(in_features=256, out_features=2, bias=True)
), ACSECNN(
  (channel_attention): Sequential(
    (0): Linear(in_features=769, out_features=128, bias=True)
    (1): ReLU()
    (2): Linear(in_features=128, out_features=1, bias=True)
    (3): Sigmoid()
  )
  (se1): SEBlock(
    (fc1): Linear(in_features=64, out_features=16, bias=True)
    (fc2): Linear(in_features=16, out_features=64, bias=True)
  )
  (se2): SEBlock(
    (fc1): Linear(in_features=128, out_features=32, bias=True)
    (fc2): Linear(in_features=32, out_features=128, bias=True)
  )
  (se3): SEBlock(
    (fc1): Linear(in_features=256, out_features=64, bias=True)
    (fc2): Linear(in_features=64, out_features=256, bias=True)
  )
  (conv1): Conv1d(64, 128, kernel_size=(5,), stride=(1,), padding=(2,))
  (bn1): BatchNorm1d(128, eps=1e-05, momentum=0.1, affine=True, track_running_stats=True)
  (pool1): MaxPool1d(kernel_size=2, stride=2, padding=0, dilation=1, ceil_mode=False)
  (conv2): Conv1d(128, 256, kernel_size=(5,), stride=(1,), padding=(2,))
  (bn2): BatchNorm1d(256, eps=1e-05, momentum=0.1, affine=True, track_running_stats=True)
  (pool2): MaxPool1d(kernel_size=2, stride=2, padding=0, dilation=1, ceil_mode=False)
  (conv3): Conv1d(256, 512, kernel_size=(3,), stride=(1,), padding=(1,))
  (bn3): BatchNorm1d(512, eps=1e-05, momentum=0.1, affine=True, track_running_stats=True)
  (pool3): MaxPool1d(kernel_size=2, stride=2, padding=0, dilation=1, ceil_mode=False)
  (dropout): Dropout(p=0.5, inplace=False)
  (fc1): Linear(in_features=49152, out_features=256, bias=True)
  (fc2): Linear(in_features=256, out_features=2, bias=True)
), ACSECNN(
  (channel_attention): Sequential(
    (0): Linear(in_features=769, out_features=128, bias=True)
    (1): ReLU()
    (2): Linear(in_features=128, out_features=1, bias=True)
    (3): Sigmoid()
  )
  (se1): SEBlock(
    (fc1): Linear(in_features=64, out_features=16, bias=True)
    (fc2): Linear(in_features=16, out_features=64, bias=True)
  )
  (se2): SEBlock(
    (fc1): Linear(in_features=128, out_features=32, bias=True)
    (fc2): Linear(in_features=32, out_features=128, bias=True)
  )
  (se3): SEBlock(
    (fc1): Linear(in_features=256, out_features=64, bias=True)
    (fc2): Linear(in_features=64, out_features=256, bias=True)
  )
  (conv1): Conv1d(64, 128, kernel_size=(5,), stride=(1,), padding=(2,))
  (bn1): BatchNorm1d(128, eps=1e-05, momentum=0.1, affine=True, track_running_stats=True)
  (pool1): MaxPool1d(kernel_size=2, stride=2, padding=0, dilation=1, ceil_mode=False)
  (conv2): Conv1d(128, 256, kernel_size=(5,), stride=(1,), padding=(2,))
  (bn2): BatchNorm1d(256, eps=1e-05, momentum=0.1, affine=True, track_running_stats=True)
  (pool2): MaxPool1d(kernel_size=2, stride=2, padding=0, dilation=1, ceil_mode=False)
  (conv3): Conv1d(256, 512, kernel_size=(3,), stride=(1,), padding=(1,))
  (bn3): BatchNorm1d(512, eps=1e-05, momentum=0.1, affine=True, track_running_stats=True)
  (pool3): MaxPool1d(kernel_size=2, stride=2, padding=0, dilation=1, ceil_mode=False)
  (dropout): Dropout(p=0.5, inplace=False)
  (fc1): Linear(in_features=49152, out_features=256, bias=True)
  (fc2): Linear(in_features=256, out_features=2, bias=True)
)]"
S014,252,64,0.8253968253968255,0.04046840883803797,0.7628205128205128,0.0634583008757158,0.6904761904761906,0.06734350297014735,0.724596391263058,0.06464718869940171,0.7773171768707483,0.054517389488923866,0.8928571428571429,0.029160592175990246,"['Fc5', 'Fc3', 'Fc1', 'Fcz', 'Fc2', 'Fc4', 'Fc6', 'C5', 'C3', 'C1', 'Cz', 'C2', 'C4', 'C6', 'Cp5', 'Cp3', 'Cp1', 'Cpz', 'Cp2', 'Cp4', 'Cp6', 'Fp1', 'Fpz', 'Fp2', 'Af7', 'Af3', 'Afz', 'Af4', 'Af8', 'F7', 'F5', 'F3', 'F1', 'Fz', 'F2', 'F4', 'F6', 'F8', 'Ft7', 'Ft8', 'T7', 'T8', 'T9', 'T10', 'Tp7', 'Tp8', 'P7', 'P5', 'P3', 'P1', 'Pz', 'P2', 'P4', 'P6', 'P8', 'Po7', 'Po3', 'Poz', 'Po4', 'Po8', 'O1', 'Oz', 'O2', 'Iz']","[ACSECNN(
  (channel_attention): Sequential(
    (0): Linear(in_features=769, out_features=128, bias=True)
    (1): ReLU()
    (2): Linear(in_features=128, out_features=1, bias=True)
    (3): Sigmoid()
  )
  (se1): SEBlock(
    (fc1): Linear(in_features=64, out_features=16, bias=True)
    (fc2): Linear(in_features=16, out_features=64, bias=True)
  )
  (se2): SEBlock(
    (fc1): Linear(in_features=128, out_features=32, bias=True)
    (fc2): Linear(in_features=32, out_features=128, bias=True)
  )
  (se3): SEBlock(
    (fc1): Linear(in_features=256, out_features=64, bias=True)
    (fc2): Linear(in_features=64, out_features=256, bias=True)
  )
  (conv1): Conv1d(64, 128, kernel_size=(5,), stride=(1,), padding=(2,))
  (bn1): BatchNorm1d(128, eps=1e-05, momentum=0.1, affine=True, track_running_stats=True)
  (pool1): MaxPool1d(kernel_size=2, stride=2, padding=0, dilation=1, ceil_mode=False)
  (conv2): Conv1d(128, 256, kernel_size=(5,), stride=(1,), padding=(2,))
  (bn2): BatchNorm1d(256, eps=1e-05, momentum=0.1, affine=True, track_running_stats=True)
  (pool2): MaxPool1d(kernel_size=2, stride=2, padding=0, dilation=1, ceil_mode=False)
  (conv3): Conv1d(256, 512, kernel_size=(3,), stride=(1,), padding=(1,))
  (bn3): BatchNorm1d(512, eps=1e-05, momentum=0.1, affine=True, track_running_stats=True)
  (pool3): MaxPool1d(kernel_size=2, stride=2, padding=0, dilation=1, ceil_mode=False)
  (dropout): Dropout(p=0.5, inplace=False)
  (fc1): Linear(in_features=49152, out_features=256, bias=True)
  (fc2): Linear(in_features=256, out_features=2, bias=True)
), ACSECNN(
  (channel_attention): Sequential(
    (0): Linear(in_features=769, out_features=128, bias=True)
    (1): ReLU()
    (2): Linear(in_features=128, out_features=1, bias=True)
    (3): Sigmoid()
  )
  (se1): SEBlock(
    (fc1): Linear(in_features=64, out_features=16, bias=True)
    (fc2): Linear(in_features=16, out_features=64, bias=True)
  )
  (se2): SEBlock(
    (fc1): Linear(in_features=128, out_features=32, bias=True)
    (fc2): Linear(in_features=32, out_features=128, bias=True)
  )
  (se3): SEBlock(
    (fc1): Linear(in_features=256, out_features=64, bias=True)
    (fc2): Linear(in_features=64, out_features=256, bias=True)
  )
  (conv1): Conv1d(64, 128, kernel_size=(5,), stride=(1,), padding=(2,))
  (bn1): BatchNorm1d(128, eps=1e-05, momentum=0.1, affine=True, track_running_stats=True)
  (pool1): MaxPool1d(kernel_size=2, stride=2, padding=0, dilation=1, ceil_mode=False)
  (conv2): Conv1d(128, 256, kernel_size=(5,), stride=(1,), padding=(2,))
  (bn2): BatchNorm1d(256, eps=1e-05, momentum=0.1, affine=True, track_running_stats=True)
  (pool2): MaxPool1d(kernel_size=2, stride=2, padding=0, dilation=1, ceil_mode=False)
  (conv3): Conv1d(256, 512, kernel_size=(3,), stride=(1,), padding=(1,))
  (bn3): BatchNorm1d(512, eps=1e-05, momentum=0.1, affine=True, track_running_stats=True)
  (pool3): MaxPool1d(kernel_size=2, stride=2, padding=0, dilation=1, ceil_mode=False)
  (dropout): Dropout(p=0.5, inplace=False)
  (fc1): Linear(in_features=49152, out_features=256, bias=True)
  (fc2): Linear(in_features=256, out_features=2, bias=True)
), ACSECNN(
  (channel_attention): Sequential(
    (0): Linear(in_features=769, out_features=128, bias=True)
    (1): ReLU()
    (2): Linear(in_features=128, out_features=1, bias=True)
    (3): Sigmoid()
  )
  (se1): SEBlock(
    (fc1): Linear(in_features=64, out_features=16, bias=True)
    (fc2): Linear(in_features=16, out_features=64, bias=True)
  )
  (se2): SEBlock(
    (fc1): Linear(in_features=128, out_features=32, bias=True)
    (fc2): Linear(in_features=32, out_features=128, bias=True)
  )
  (se3): SEBlock(
    (fc1): Linear(in_features=256, out_features=64, bias=True)
    (fc2): Linear(in_features=64, out_features=256, bias=True)
  )
  (conv1): Conv1d(64, 128, kernel_size=(5,), stride=(1,), padding=(2,))
  (bn1): BatchNorm1d(128, eps=1e-05, momentum=0.1, affine=True, track_running_stats=True)
  (pool1): MaxPool1d(kernel_size=2, stride=2, padding=0, dilation=1, ceil_mode=False)
  (conv2): Conv1d(128, 256, kernel_size=(5,), stride=(1,), padding=(2,))
  (bn2): BatchNorm1d(256, eps=1e-05, momentum=0.1, affine=True, track_running_stats=True)
  (pool2): MaxPool1d(kernel_size=2, stride=2, padding=0, dilation=1, ceil_mode=False)
  (conv3): Conv1d(256, 512, kernel_size=(3,), stride=(1,), padding=(1,))
  (bn3): BatchNorm1d(512, eps=1e-05, momentum=0.1, affine=True, track_running_stats=True)
  (pool3): MaxPool1d(kernel_size=2, stride=2, padding=0, dilation=1, ceil_mode=False)
  (dropout): Dropout(p=0.5, inplace=False)
  (fc1): Linear(in_features=49152, out_features=256, bias=True)
  (fc2): Linear(in_features=256, out_features=2, bias=True)
)]"
S015,252,64,0.8492063492063493,0.014847846772912463,0.8035914702581369,0.018304721021661155,0.7261904761904762,0.060702613257056934,0.7612121212121212,0.03270481833510792,0.8568239795918368,0.039935726802792115,0.9107142857142857,0.0145802960879951,"['Fc5', 'Fc3', 'Fc1', 'Fcz', 'Fc2', 'Fc4', 'Fc6', 'C5', 'C3', 'C1', 'Cz', 'C2', 'C4', 'C6', 'Cp5', 'Cp3', 'Cp1', 'Cpz', 'Cp2', 'Cp4', 'Cp6', 'Fp1', 'Fpz', 'Fp2', 'Af7', 'Af3', 'Afz', 'Af4', 'Af8', 'F7', 'F5', 'F3', 'F1', 'Fz', 'F2', 'F4', 'F6', 'F8', 'Ft7', 'Ft8', 'T7', 'T8', 'T9', 'T10', 'Tp7', 'Tp8', 'P7', 'P5', 'P3', 'P1', 'Pz', 'P2', 'P4', 'P6', 'P8', 'Po7', 'Po3', 'Poz', 'Po4', 'Po8', 'O1', 'Oz', 'O2', 'Iz']","[ACSECNN(
  (channel_attention): Sequential(
    (0): Linear(in_features=769, out_features=128, bias=True)
    (1): ReLU()
    (2): Linear(in_features=128, out_features=1, bias=True)
    (3): Sigmoid()
  )
  (se1): SEBlock(
    (fc1): Linear(in_features=64, out_features=16, bias=True)
    (fc2): Linear(in_features=16, out_features=64, bias=True)
  )
  (se2): SEBlock(
    (fc1): Linear(in_features=128, out_features=32, bias=True)
    (fc2): Linear(in_features=32, out_features=128, bias=True)
  )
  (se3): SEBlock(
    (fc1): Linear(in_features=256, out_features=64, bias=True)
    (fc2): Linear(in_features=64, out_features=256, bias=True)
  )
  (conv1): Conv1d(64, 128, kernel_size=(5,), stride=(1,), padding=(2,))
  (bn1): BatchNorm1d(128, eps=1e-05, momentum=0.1, affine=True, track_running_stats=True)
  (pool1): MaxPool1d(kernel_size=2, stride=2, padding=0, dilation=1, ceil_mode=False)
  (conv2): Conv1d(128, 256, kernel_size=(5,), stride=(1,), padding=(2,))
  (bn2): BatchNorm1d(256, eps=1e-05, momentum=0.1, affine=True, track_running_stats=True)
  (pool2): MaxPool1d(kernel_size=2, stride=2, padding=0, dilation=1, ceil_mode=False)
  (conv3): Conv1d(256, 512, kernel_size=(3,), stride=(1,), padding=(1,))
  (bn3): BatchNorm1d(512, eps=1e-05, momentum=0.1, affine=True, track_running_stats=True)
  (pool3): MaxPool1d(kernel_size=2, stride=2, padding=0, dilation=1, ceil_mode=False)
  (dropout): Dropout(p=0.5, inplace=False)
  (fc1): Linear(in_features=49152, out_features=256, bias=True)
  (fc2): Linear(in_features=256, out_features=2, bias=True)
), ACSECNN(
  (channel_attention): Sequential(
    (0): Linear(in_features=769, out_features=128, bias=True)
    (1): ReLU()
    (2): Linear(in_features=128, out_features=1, bias=True)
    (3): Sigmoid()
  )
  (se1): SEBlock(
    (fc1): Linear(in_features=64, out_features=16, bias=True)
    (fc2): Linear(in_features=16, out_features=64, bias=True)
  )
  (se2): SEBlock(
    (fc1): Linear(in_features=128, out_features=32, bias=True)
    (fc2): Linear(in_features=32, out_features=128, bias=True)
  )
  (se3): SEBlock(
    (fc1): Linear(in_features=256, out_features=64, bias=True)
    (fc2): Linear(in_features=64, out_features=256, bias=True)
  )
  (conv1): Conv1d(64, 128, kernel_size=(5,), stride=(1,), padding=(2,))
  (bn1): BatchNorm1d(128, eps=1e-05, momentum=0.1, affine=True, track_running_stats=True)
  (pool1): MaxPool1d(kernel_size=2, stride=2, padding=0, dilation=1, ceil_mode=False)
  (conv2): Conv1d(128, 256, kernel_size=(5,), stride=(1,), padding=(2,))
  (bn2): BatchNorm1d(256, eps=1e-05, momentum=0.1, affine=True, track_running_stats=True)
  (pool2): MaxPool1d(kernel_size=2, stride=2, padding=0, dilation=1, ceil_mode=False)
  (conv3): Conv1d(256, 512, kernel_size=(3,), stride=(1,), padding=(1,))
  (bn3): BatchNorm1d(512, eps=1e-05, momentum=0.1, affine=True, track_running_stats=True)
  (pool3): MaxPool1d(kernel_size=2, stride=2, padding=0, dilation=1, ceil_mode=False)
  (dropout): Dropout(p=0.5, inplace=False)
  (fc1): Linear(in_features=49152, out_features=256, bias=True)
  (fc2): Linear(in_features=256, out_features=2, bias=True)
), ACSECNN(
  (channel_attention): Sequential(
    (0): Linear(in_features=769, out_features=128, bias=True)
    (1): ReLU()
    (2): Linear(in_features=128, out_features=1, bias=True)
    (3): Sigmoid()
  )
  (se1): SEBlock(
    (fc1): Linear(in_features=64, out_features=16, bias=True)
    (fc2): Linear(in_features=16, out_features=64, bias=True)
  )
  (se2): SEBlock(
    (fc1): Linear(in_features=128, out_features=32, bias=True)
    (fc2): Linear(in_features=32, out_features=128, bias=True)
  )
  (se3): SEBlock(
    (fc1): Linear(in_features=256, out_features=64, bias=True)
    (fc2): Linear(in_features=64, out_features=256, bias=True)
  )
  (conv1): Conv1d(64, 128, kernel_size=(5,), stride=(1,), padding=(2,))
  (bn1): BatchNorm1d(128, eps=1e-05, momentum=0.1, affine=True, track_running_stats=True)
  (pool1): MaxPool1d(kernel_size=2, stride=2, padding=0, dilation=1, ceil_mode=False)
  (conv2): Conv1d(128, 256, kernel_size=(5,), stride=(1,), padding=(2,))
  (bn2): BatchNorm1d(256, eps=1e-05, momentum=0.1, affine=True, track_running_stats=True)
  (pool2): MaxPool1d(kernel_size=2, stride=2, padding=0, dilation=1, ceil_mode=False)
  (conv3): Conv1d(256, 512, kernel_size=(3,), stride=(1,), padding=(1,))
  (bn3): BatchNorm1d(512, eps=1e-05, momentum=0.1, affine=True, track_running_stats=True)
  (pool3): MaxPool1d(kernel_size=2, stride=2, padding=0, dilation=1, ceil_mode=False)
  (dropout): Dropout(p=0.5, inplace=False)
  (fc1): Linear(in_features=49152, out_features=256, bias=True)
  (fc2): Linear(in_features=256, out_features=2, bias=True)
)]"
S016,252,64,0.746031746031746,0.014847846772912463,0.7968936678614099,0.15860861911852892,0.4047619047619048,0.19416079083690585,0.48896353981099744,0.11294299190086732,0.6709183673469387,0.047236949456992854,0.9166666666666666,0.0937381889763311,"['Fc5', 'Fc3', 'Fc1', 'Fcz', 'Fc2', 'Fc4', 'Fc6', 'C5', 'C3', 'C1', 'Cz', 'C2', 'C4', 'C6', 'Cp5', 'Cp3', 'Cp1', 'Cpz', 'Cp2', 'Cp4', 'Cp6', 'Fp1', 'Fpz', 'Fp2', 'Af7', 'Af3', 'Afz', 'Af4', 'Af8', 'F7', 'F5', 'F3', 'F1', 'Fz', 'F2', 'F4', 'F6', 'F8', 'Ft7', 'Ft8', 'T7', 'T8', 'T9', 'T10', 'Tp7', 'Tp8', 'P7', 'P5', 'P3', 'P1', 'Pz', 'P2', 'P4', 'P6', 'P8', 'Po7', 'Po3', 'Poz', 'Po4', 'Po8', 'O1', 'Oz', 'O2', 'Iz']","[ACSECNN(
  (channel_attention): Sequential(
    (0): Linear(in_features=769, out_features=128, bias=True)
    (1): ReLU()
    (2): Linear(in_features=128, out_features=1, bias=True)
    (3): Sigmoid()
  )
  (se1): SEBlock(
    (fc1): Linear(in_features=64, out_features=16, bias=True)
    (fc2): Linear(in_features=16, out_features=64, bias=True)
  )
  (se2): SEBlock(
    (fc1): Linear(in_features=128, out_features=32, bias=True)
    (fc2): Linear(in_features=32, out_features=128, bias=True)
  )
  (se3): SEBlock(
    (fc1): Linear(in_features=256, out_features=64, bias=True)
    (fc2): Linear(in_features=64, out_features=256, bias=True)
  )
  (conv1): Conv1d(64, 128, kernel_size=(5,), stride=(1,), padding=(2,))
  (bn1): BatchNorm1d(128, eps=1e-05, momentum=0.1, affine=True, track_running_stats=True)
  (pool1): MaxPool1d(kernel_size=2, stride=2, padding=0, dilation=1, ceil_mode=False)
  (conv2): Conv1d(128, 256, kernel_size=(5,), stride=(1,), padding=(2,))
  (bn2): BatchNorm1d(256, eps=1e-05, momentum=0.1, affine=True, track_running_stats=True)
  (pool2): MaxPool1d(kernel_size=2, stride=2, padding=0, dilation=1, ceil_mode=False)
  (conv3): Conv1d(256, 512, kernel_size=(3,), stride=(1,), padding=(1,))
  (bn3): BatchNorm1d(512, eps=1e-05, momentum=0.1, affine=True, track_running_stats=True)
  (pool3): MaxPool1d(kernel_size=2, stride=2, padding=0, dilation=1, ceil_mode=False)
  (dropout): Dropout(p=0.5, inplace=False)
  (fc1): Linear(in_features=49152, out_features=256, bias=True)
  (fc2): Linear(in_features=256, out_features=2, bias=True)
), ACSECNN(
  (channel_attention): Sequential(
    (0): Linear(in_features=769, out_features=128, bias=True)
    (1): ReLU()
    (2): Linear(in_features=128, out_features=1, bias=True)
    (3): Sigmoid()
  )
  (se1): SEBlock(
    (fc1): Linear(in_features=64, out_features=16, bias=True)
    (fc2): Linear(in_features=16, out_features=64, bias=True)
  )
  (se2): SEBlock(
    (fc1): Linear(in_features=128, out_features=32, bias=True)
    (fc2): Linear(in_features=32, out_features=128, bias=True)
  )
  (se3): SEBlock(
    (fc1): Linear(in_features=256, out_features=64, bias=True)
    (fc2): Linear(in_features=64, out_features=256, bias=True)
  )
  (conv1): Conv1d(64, 128, kernel_size=(5,), stride=(1,), padding=(2,))
  (bn1): BatchNorm1d(128, eps=1e-05, momentum=0.1, affine=True, track_running_stats=True)
  (pool1): MaxPool1d(kernel_size=2, stride=2, padding=0, dilation=1, ceil_mode=False)
  (conv2): Conv1d(128, 256, kernel_size=(5,), stride=(1,), padding=(2,))
  (bn2): BatchNorm1d(256, eps=1e-05, momentum=0.1, affine=True, track_running_stats=True)
  (pool2): MaxPool1d(kernel_size=2, stride=2, padding=0, dilation=1, ceil_mode=False)
  (conv3): Conv1d(256, 512, kernel_size=(3,), stride=(1,), padding=(1,))
  (bn3): BatchNorm1d(512, eps=1e-05, momentum=0.1, affine=True, track_running_stats=True)
  (pool3): MaxPool1d(kernel_size=2, stride=2, padding=0, dilation=1, ceil_mode=False)
  (dropout): Dropout(p=0.5, inplace=False)
  (fc1): Linear(in_features=49152, out_features=256, bias=True)
  (fc2): Linear(in_features=256, out_features=2, bias=True)
), ACSECNN(
  (channel_attention): Sequential(
    (0): Linear(in_features=769, out_features=128, bias=True)
    (1): ReLU()
    (2): Linear(in_features=128, out_features=1, bias=True)
    (3): Sigmoid()
  )
  (se1): SEBlock(
    (fc1): Linear(in_features=64, out_features=16, bias=True)
    (fc2): Linear(in_features=16, out_features=64, bias=True)
  )
  (se2): SEBlock(
    (fc1): Linear(in_features=128, out_features=32, bias=True)
    (fc2): Linear(in_features=32, out_features=128, bias=True)
  )
  (se3): SEBlock(
    (fc1): Linear(in_features=256, out_features=64, bias=True)
    (fc2): Linear(in_features=64, out_features=256, bias=True)
  )
  (conv1): Conv1d(64, 128, kernel_size=(5,), stride=(1,), padding=(2,))
  (bn1): BatchNorm1d(128, eps=1e-05, momentum=0.1, affine=True, track_running_stats=True)
  (pool1): MaxPool1d(kernel_size=2, stride=2, padding=0, dilation=1, ceil_mode=False)
  (conv2): Conv1d(128, 256, kernel_size=(5,), stride=(1,), padding=(2,))
  (bn2): BatchNorm1d(256, eps=1e-05, momentum=0.1, affine=True, track_running_stats=True)
  (pool2): MaxPool1d(kernel_size=2, stride=2, padding=0, dilation=1, ceil_mode=False)
  (conv3): Conv1d(256, 512, kernel_size=(3,), stride=(1,), padding=(1,))
  (bn3): BatchNorm1d(512, eps=1e-05, momentum=0.1, affine=True, track_running_stats=True)
  (pool3): MaxPool1d(kernel_size=2, stride=2, padding=0, dilation=1, ceil_mode=False)
  (dropout): Dropout(p=0.5, inplace=False)
  (fc1): Linear(in_features=49152, out_features=256, bias=True)
  (fc2): Linear(in_features=256, out_features=2, bias=True)
)]"
